log/tic_tac_toe/ddqn_mlp/policy.pth (torch, 377443 bytes, 16 tensors)

model.model.model.0.weight f4 [256, 18]
000000 59 d6 71 3e 82 3b b2 bd 65 1b 0d be d1 4a 17 3d
       0.23616923 -0.087027565 -0.13779981 0.036936585
000010 5c b7 33 3e eb 3d 29 3d f3 f7 1d be 28 1f a3 3d
       0.17550415 0.041318815 -0.15426616 0.07964927
000020 49 9f 3b be aa b8 55 bc ce 15 4e 3e 88 76 8a bd
       -0.18322481 -0.013044516 0.20125505 -0.06760889
000030 b8 31 93 3d 3c b3 b2 3b 0c 86 11 bd bd 16 14 3e
       0.071872175 0.0054534953 -0.035528228 0.14461799
000040 4b d0 02 3e 05 02 30 3d 38 59 25 be bf a2 1c bd
       0.1277477 0.042970676 -0.16147316 -0.038241144
000050 d7 ff 95 be 07 e9 87 ba 6c f5 35 bd 07 0d 7f b9
       -0.29296753 -0.001036913 -0.044423506 -0.00024323548
000060 56 c9 33 bd a0 d8 12 3e 11 e0 2d 3e bb dd a4 bd
       -0.04389318 0.14340448 0.16980006 -0.08050104
000070 66 4c f6 3c c9 9b d3 3d 7e 1c ba 3d 4b 17 bd 3d
       0.030065726 0.10332448 0.09087466 0.092329584
000080 3f 13 7f 3d 3a b9 e1 bd 58 f6 7f 3d 4a 9c 52 3d
       0.062274214 -0.11021657 0.06249079 0.05141858
000090 31 99 74 be b6 89 85 3e c1 3c 58 3d fb d7 8d bd
       -0.23886563 0.26081628 0.052792314 -0.06925961
0000a0 a5 7f 04 3d 74 09 c5 bd 37 98 7d 3d 01 cb 2d 3e
       0.032348294 -0.09620944 0.06191274 0.16971971
0000b0 93 39 ad be 49 ff 65 3d 49 3c a7 3c 21 97 57 3d
       -0.33832988 0.056151662 0.020414488 0.052634362
0000c0 e1 ef 88 3d 6e 2d 98 bd 18 86 80 3e 75 08 a2 3d
       0.06686378 -0.0743054 0.25102305 0.07911769
0000d0 3f 51 91 3e b3 0b 0d be b8 96 ea bc 1f fb 60 3e
       0.28382298 -0.13773994 -0.028636321 0.21970795
0000e0 f8 18 6a 3e 14 bb 61 be dd 12 e1 3d 67 39 6b 3e
       0.22861087 -0.22044021 0.10989926 0.22971116
0000f0 04 fb 2c be f9 98 3d 3e 10 8f 90 bc 51 5e 39 3e
       -0.1689263 0.18515386 -0.017646343 0.18102385
000100 5e b2 93 bd 40 9b d3 bd d5 df 85 bd 83 f3 43 3e
       -0.07211755 -0.10332346 -0.06536833 0.19135861
000110 b3 26 2b be e2 e8 20 be 3f 91 50 3e e3 0a 44 bd
       -0.16713981 -0.15713838 0.20367907 -0.047861945
000120 12 0f f7 3d 8c 0c 33 3e fb e3 bf be f9 8e 79 3c
       0.12063421 0.17485255 -0.37478623 0.015231841
000130 2a 76 c7 bd 63 bd 5a 3e 4e 76 af 3e ff 97 10 be
       -0.09739335 0.21361308 0.34269947 -0.14120482
000140 f4 31 84 3e 33 2e 22 3e 04 31 cc 3c f3 a3 c1 bd
       0.2581936 0.15837936 0.024925716 -0.09455099
000150 9f 5b 06 be f6 29 f0 bc 52 95 0c be d2 40 32 3e
       -0.13120888 -0.029316884 -0.13728836 0.1740754
000160 aa 62 3e bd 2d 6f 57 3e 2f 35 5a be 13 c9 66 3e
       -0.046480812 0.21038504 -0.2130935 0.22537641
000170 77 52 0f 3e b0 70 ff bd b8 2e 84 bc 40 39 44 3c
       0.13996302 -0.12472665 -0.016135558 0.01197654
000180 78 f8 a1 3d 53 da 9e 3b 46 50 7d be 5b 20 68 3d
       0.0790872 0.0048478036 -0.24737653 0.05667148
000190 69 5c 6c 3e 42 21 4f be 5b 7f 2f 3e 6b ec f3 bb
       0.23082127 -0.2022753 0.17138426 -0.0074439547
0001a0 b0 0f 0c be f3 4d aa 3d e8 5a 8a 3e 81 a3 58 be
       -0.1367786 0.08315649 0.2702248 -0.21156122
0001b0 87 4b a3 3e 3f 35 cf bd cf d8 8d be 5e 44 6b 3b
       0.3189356 -0.10117578 -0.27704474 0.0035898904
0001c0 3e 39 7b 3e ed 59 43 be 34 78 df bd 1c 2e 92 3d
       0.24533555 -0.19077273 -0.10911599 0.07137701
0001d0 7a f7 5e 3e 28 22 53 be a6 5d 05 be c5 68 4f 3e
       0.21774092 -0.20618498 -0.13024005 0.2025481
0001e0 47 0b c9 3c f9 da 4d 3e f8 df d0 bc 3f 9e 23 be
       0.02454151 0.20103063 -0.025497422 -0.15978335
0001f0 06 ce f0 3d 07 09 87 3d 6d c3 e5 3d 7a 20 e8 3c
       0.11758046 0.06593519 0.11218915 0.028335799
000200 e7 79 1e 3e 81 6f 99 bd 07 ac 20 be 3c cf 6f 3e
       0.1547619 -0.07491971 -0.15690623 0.23418897
000210 da 29 7f 3e 15 0e 0f be c5 32 b9 be 6b f0 55 3e
       0.24918309 -0.13970216 -0.36171547 0.20892493
000220 34 4d 04 3e 3d 6e e1 bd 9d 42 42 bd c3 85 59 3e
       0.12920076 -0.110073544 -0.04742681 0.21242432
000230 d1 89 78 3b 52 45 44 be 22 64 44 bc 28 db c3 bd
       0.0037923942 -0.19167069 -0.011986764 -0.09563285
000240 92 85 20 3e 1c 85 36 3e 30 4a 81 3e 1b a4 a8 ba
       0.15675953 0.17824215 0.25251913 -0.001286629
000250 2b 76 7e be 39 82 66 3e 97 21 10 be cf 05 80 bd
       -0.24849765 0.22510614 -0.14075314 -0.06251108
000260 18 27 33 be 23 32 df 3d 36 43 3f be d7 67 a0 3d
       -0.17495382 0.10898235 -0.18677983 0.07832306
000270 a7 b6 6e 3e 71 e6 79 3b 14 6f b3 bd 5b 13 74 bd
       0.23311864 0.0038131739 -0.08761421 -0.05958877
000280 42 06 22 3e c5 64 1f be ed f9 b6 3e 76 67 0f be
       0.158227 -0.15565784 0.35737553 -0.14004311
000290 f7 3a ac bd ac d2 e9 bd 90 ef 0b 3e dc 36 42 3d
       -0.08409684 -0.114171356 0.13665605 0.0474156
0002a0 68 23 31 be c9 25 18 bd 02 88 e4 3d f4 b9 2e be
       -0.17298663 -0.03714541 0.11158754 -0.17063123
0002b0 ad 28 32 bc 59 f5 58 3e e2 2e 75 3d c0 49 db 3d
       -0.010873956 0.21187343 0.059859164 0.10707426
0002c0 10 3a f7 3d ea 64 36 3e 2a 8a 97 3d e5 20 3d 3d
       0.120716214 0.17811933 0.073993996 0.04617395
0002d0 85 97 fa 3b 1d 83 82 bd 06 a2 8c 3d f6 f3 6b bd
       0.007647457 -0.06372664 0.06866841 -0.057605706
0002e0 4c cc 0a be 8c fd 36 3e 94 f5 9a 3e 7f 30 7d 3b
       -0.13554496 0.17870158 0.30265486 0.0038633642
0002f0 3b 9b 35 3e bb 42 f2 3a 9e a7 c4 3d cd 0a b9 3d
       0.17734997 0.0018483022 0.09602283 0.09035263
000300 1b 10 8a 3e 50 98 13 3e 4b c9 dc bc 00 77 dd 3c
       0.26965412 0.14413571 -0.026951453 0.027034283
000310 81 b9 4c bd 3c af 08 3c 2d c1 79 bd 26 27 5f 3e
       -0.049981598 0.00834256 -0.060975242 0.21792278
000320 4a f4 b2 bd 43 30 a5 ba 4b db 5f bd e9 b6 4c be
       -0.08738001 -0.0012602884 -0.054652493 -0.1999165
000330 b3 47 59 be 23 9d 71 bc 9a 83 62 3e be 8a af bc
       -0.21218757 -0.014746937 0.22120515 -0.021428462
000340 4c 13 84 3e 3e 3e 77 3e b2 ed db bc ff fe cf bc
       0.25795972 0.24144837 -0.02684674 -0.025390146
000350 86 37 41 bd 58 38 3d be 6a 17 c2 bd 77 5d 4c be
       -0.047172092 -0.18478525 -0.09477122 -0.19957529
000360 68 4c 8a 3d 61 70 68 bd 8d 24 92 be 22 20 25 3e
       0.067528546 -0.056747798 -0.2854351 0.16125539
000370 94 3d 67 3e 66 1d 89 3e f2 db 0d be e2 ee 41 be
       0.22582084 0.26780242 -0.13853434 -0.18938783
000380 8a df 11 be 0d ac 25 3d 47 35 6b 3e 5f 09 10 be
       -0.1424543 0.040447284 0.22969542 -0.14066075
000390 21 0c cc bd 1d b8 2b 3d 3b 4b 2d 3e 4f 94 1c bd
       -0.09963251 0.04192363 0.1692323 -0.038227376
0003a0 46 c2 12 bd b6 86 6c be 70 27 84 be 14 4f 5d be
       -0.035829805 -0.23098263 -0.25811338 -0.21612197
0003b0 ec 49 35 3e 70 82 68 3e a4 01 90 3e 0e 54 75 be
       0.1770398 0.22706008 0.28126252 -0.23957846
0003c0 a0 8d 90 bd 8a 0c 54 be 9d 44 6a bd 81 c8 83 3e
       -0.07058263 -0.20707908 -0.05719434 0.2573891
0003d0 43 8e 44 3d 84 db a6 3d 6e ac 82 bd 70 3a 80 3e
       0.047987234 0.08147338 -0.063805446 0.25044584
0003e0 8c c2 0a be 5b 49 d0 bc 62 8b c6 3d 31 87 e3 bd
       -0.13550776 -0.025425604 0.09694554 -0.1110977
0003f0 9a 63 01 3e 14 e2 66 bd 45 60 78 bd c1 73 f3 3b
       0.12635651 -0.05636795 -0.060638685 0.0074295704

model.model.model.0.bias f4 [256]
000000 a5 ba 1a 3e 5a f3 4a 3e 95 4e 1a be 28 26 02 3e
       0.15110262 0.19819394 -0.15069039 0.12709868
000010 b5 6b 2b be ae 2c 39 3e 2b 8c 26 3e 8f 1a 9f 3d
       -0.16740306 0.1808345 0.16264407 0.077687375
000020 31 62 1f 3e 85 0d 81 3d b1 5c 0b be 55 e3 2c bb
       0.15564801 0.06301407 -0.13609578 -0.0026380618
000030 bc 2b 0b 3d ae ec 56 3c b2 5e 81 3d e1 cb a2 3d
       0.033977255 0.013117952 0.0631689 0.07949043
000040 67 0a c1 3c 8f 05 da bc 21 10 57 3e 6a 02 97 3c
       0.02356453 -0.026613979 0.21002246 0.018433768
000050 f8 b7 16 bc a1 69 13 3e 27 38 c0 3d 21 7b cc bc
       -0.009199135 0.14395763 0.0938571 -0.024961056
000060 f1 7b a6 3d 84 18 d5 bd 56 64 e0 3d ad b9 65 bd
       0.08129109 -0.104050666 0.109566376 -0.056085277
000070 c5 82 8c bd b8 95 03 be 8a c5 40 be e8 58 a7 3d
       -0.0686088 -0.12850082 -0.18825355 0.081712544
000080 73 c6 c5 3d a0 56 31 3e 41 1e fb bc d9 25 5d 3e
       0.09656992 0.17318201 -0.030654075 0.21596469
000090 6d a7 24 3e 16 f3 f1 bd 41 4e 2e 3e 0b 57 77 bb
       0.16079493 -0.11813943 0.17022039 -0.003774109
0000a0 44 46 8b bc 9e df e6 bd ee ed 00 3e e3 08 2f 3e
       -0.017001279 -0.1127312 0.12590763 0.17093234
0000b0 81 8b 79 bd 45 71 08 be 3a df 23 3e 15 44 44 be
       -0.060924057 -0.13324459 0.16003123 -0.19166596
0000c0 67 cc 0a 3c 8e fa ef 3d 96 2b 9c bd 70 b3 5c be
       0.008471585 0.117177114 -0.07625501 -0.21552825
0000d0 b1 46 fa bc 33 e1 b8 bd 28 a5 02 be 3f 3c 72 3e
       -0.030551286 -0.09027328 -0.12758315 0.23655795
0000e0 51 92 34 be 10 e3 81 3e 0f a5 ac 3d aa 90 22 3e
       -0.1763394 0.25368547 0.0842992 0.15875497
0000f0 de f5 44 3d ef c7 2f bd 97 27 7a 3e 52 da 92 bb
       0.04808604 -0.04291528 0.24429165 -0.004481592
000100 71 84 82 3d 7b 43 5d 3e e5 3b 71 3d 18 61 5b bd
       0.063729174 0.21607773 0.05889501 -0.053559393
000110 5c 2e 1e be 47 84 da 3d 37 13 29 3e a2 7c 16 be
       -0.15447372 0.10669761 0.16511236 -0.14695981
000120 e5 24 36 bd 38 b4 fa bd 00 46 18 be 91 4b 14 bd
       -0.04446878 -0.12241405 -0.14870453 -0.03620488
000130 a8 9e f2 3d 3e df 42 be b7 21 46 3e 50 94 ea 3c
       0.118466675 -0.19030473 0.19348799 0.028635174
000140 8d 5f 8f bb 68 48 ac 3c d8 d9 37 3e 46 a7 8a bc
       -0.004375404 0.02103062 0.17954195 -0.016925465
000150 0a 00 e2 bd 21 8f 31 bd 2c 65 da bd 36 c6 32 bd
       -0.11035164 -0.04334939 -0.10663828 -0.04364606
000160 22 35 29 be 00 ab 92 3d d9 36 32 3d 28 24 64 3e
       -0.16524175 0.07161522 0.043509338 0.22279418
000170 90 bb 13 3c cd 71 85 3e 8c d7 1c be 6d d7 2f 3e
       0.009016886 0.26063386 -0.153166 0.17172022
000180 f4 f5 18 3e d7 c8 b8 3c 4b 66 0a be c5 ff 1c 3d
       0.14937574 0.022556705 -0.13515584 0.03832986
000190 ca 62 99 bd 22 82 91 3c 40 d5 ee 3c fb 11 7c 3e
       -0.07489546 0.017762247 0.02915442 0.24616234
0001a0 1f 19 6c 3a da 5f c6 3d b2 e9 68 3e e6 b4 db 3c
       0.0009006429 0.09686251 0.22745398 0.026819658
0001b0 cb b7 7c 3d 42 ef 4b 3e 23 b8 e7 bd 4f 23 46 3e
       0.061698716 0.19915488 -0.11314418 0.19349407
0001c0 c9 77 71 bd 3a 77 c5 bd 5a 1c 08 3e da a8 0f 3e
       -0.058952127 -0.09641881 0.13292065 0.14029256
0001d0 00 65 39 3e 04 1c a9 bd b0 13 02 be 34 69 0b be
       0.18104935 -0.08257297 -0.12702823 -0.1361435
0001e0 03 38 46 bc 3d db 73 be e6 88 5e 3c cc 7d fe 3d
       -0.012098315 -0.23814102 0.013582444 0.124263376
0001f0 2f 86 e0 3c 16 b1 b8 3d 6f 8c 1a 3e 3f 54 d4 3c
       0.027407734 0.090181515 0.15092634 0.025919078
000200 5b 85 3d 3e ec 4b 02 3e 03 e6 6a 3e 4c 9b 81 3d
       0.18507902 0.12724274 0.22939305 0.06328449
000210 d0 5b 2d be 97 ef f6 bd 72 a8 62 bd 3e 7d cb 3d
       -0.16929555 -0.12057417 -0.055336423 0.099359974
000220 66 8e 44 bc a4 72 38 3e 81 41 36 bd fc c0 ac 3c
       -0.011996841 0.18012482 -0.044496063 0.021088116
000230 78 15 c5 bd cb 1d 04 3d db 65 86 3d a9 16 e1 bd
       -0.096232355 0.032254975 0.06562396 -0.1099065
000240 06 62 31 be 45 0b a7 3d 1c 2c cb bd ec b4 51 3e
       -0.17322549 0.08156446 -0.099205226 0.20479172
000250 5d 5e a4 3d 5e 9c 4e 3e 1e 00 73 3d 07 d8 30 3d
       0.08025811 0.20176837 0.059326284 0.04317477
000260 43 14 1a bd 31 ee 4a 3e 33 02 a8 bc a4 87 f3 bd
       -0.03761698 0.19817425 -0.020508861 -0.11891106
000270 10 04 39 be c9 1a 26 3e d2 3d 42 be af 2a 22 3e
       -0.18067956 0.16221155 -0.18968895 0.15836595
000280 a5 d3 36 bc 94 99 6b bd 0d 80 08 3d 17 2a bf bd
       -0.011158858 -0.05751951 0.033325244 -0.093342
000290 fe 68 48 3e ac 29 a0 bd 35 14 39 3c ad cf 2e be
       0.19571301 -0.07820448 0.011296322 -0.1707141
0002a0 e5 10 b0 bd cc dc 15 be 60 c1 57 be 3c 9f 7f 3e
       -0.085969724 -0.14635009 -0.2106986 0.24963087
0002b0 8a 87 7a bd 84 d4 5a 3e 18 90 84 3e ba c7 69 3c
       -0.061164416 0.21370131 0.25891185 0.01426881
0002c0 7a 08 88 3e c4 11 e6 3d db 75 0f 3d 45 1b 3d 3e
       0.26568967 0.11233857 0.035024505 0.18467434
0002d0 03 9a 35 3e 4e 68 fd 3d 75 10 5d 3e 23 04 f2 bd
       0.17734532 0.1237341 0.21588309 -0.11817195
0002e0 0a e2 0c 3e 63 5e 2e 3e 32 52 62 3e c0 c0 8c 3a
       0.13758102 0.17028193 0.22101668 0.0010738596
0002f0 1a 6a 78 bb 03 a9 1c 3e 77 2e 85 3e 58 eb a9 bd
       -0.0037905038 0.15298848 0.26012012 -0.082968414
000300 d0 95 00 3e 7b ff 5b 3e c9 a2 09 be 6b 35 7e 3e
       0.12557149 0.21484177 -0.13441004 0.24825065
000310 ca 8f 53 3e 1d 10 28 be 02 51 4e 3e 66 10 db bd
       0.2066032 -0.16412397 0.2014809 -0.10696487
000320 52 44 7c bd 97 53 20 3e a6 e6 15 3e 27 5b 05 be
       -0.061588593 0.15656887 0.14638767 -0.13023053
000330 35 31 9f bd e9 67 c2 bd d6 2a 9c bc 58 67 7e bd
       -0.07773057 -0.094924755 -0.019063395 -0.062110275
000340 c6 d4 62 3e 55 12 31 3e 69 42 e1 bd 2e c5 9f bd
       0.22151479 0.1729215 -0.10998995 -0.07801281
000350 d0 3d 3c 3e 91 7d ea bd de 7b b1 3d 6f 79 dd 3d
       0.18382955 -0.11449731 0.08666204 0.10814177
000360 c1 4f 2b 3c 20 ad 4f 3e 28 1a b5 3d 2c 7c 2f 3e
       0.0104560265 0.20280886 0.088428795 0.17137212
000370 52 56 44 3e eb 80 1f 3e 6b a1 4b bc 34 5a 20 be
       0.19173554 0.15576522 -0.012428622 -0.1565941
000380 c7 0e 4b bd 7d 67 41 3d e3 d9 86 3e c0 36 48 3e
       -0.04957464 0.047217835 0.2633811 0.19552135
000390 eb f0 2f 3d 12 07 9c bc 7d aa ec 3d 8c 72 16 be
       0.042954367 -0.01904634 0.115559556 -0.14692134
0003a0 a3 8c 5c 3e ad 04 51 3e 8f ac 06 be 7a d2 6a be
       0.21538024 0.2041194 -0.13151763 -0.22931853
0003b0 7e ce 43 3d fb 94 3c be 41 4d cd bd df fc b2 3d
       0.04780435 -0.18416207 -0.10024501 0.087396376
0003c0 98 af 25 3d 93 02 21 3e 48 ad 69 3e a9 16 64 ba
       0.040450662 0.15723638 0.22820008 -0.00087008864
0003d0 99 6a 78 3d b6 4a 0f be 31 50 d0 bd 14 93 1d be
       0.060648534 -0.13993344 -0.10171545 -0.15388137
0003e0 33 76 1c 3e 39 3e 80 3e 17 40 38 be 50 09 83 3e
       0.15279464 0.25047472 -0.17993198 0.25593042
0003f0 2a 5d c4 3d 0a 11 90 3c 7b 90 2c be 4a 8d 77 3e
       0.09588082 0.01758625 -0.1685199 0.24174991

model.model.model.2.weight f4 [128, 256]
000000 77 0f 8c bc 43 7d 96 3d 7c e7 81 3d ea 44 ba 3c
       -0.017097218 0.073481105 0.0634298 0.022737939
000010 91 6d 46 bd 24 43 04 3d 82 3c cd bc b3 99 81 3d
       -0.048444334 0.032290593 -0.025053266 0.06328144
000020 eb 88 97 3d 36 91 4c bd 43 21 c4 bd d7 63 8d 3d
       0.07399162 -0.04994317 -0.09576657 0.069038086
000030 ba cf 3d bd c5 cb 23 bd 9b 2e 8d 3c bf ab 2c bd
       -0.04634068 -0.03998925 0.017234137 -0.042155977
000040 9f 2c 3b bd 58 91 95 bd 6f 02 1f bd fe 20 13 3b
       -0.04569685 -0.07303113 -0.03882068 0.0022450085
000050 1b db bc 3c df bc 45 bd 5d a7 56 3c 3e 5d a6 3d
       0.023053696 -0.048275825 0.013101426 0.08123253
000060 8c 90 5e bc b1 2f 1e 3d d7 0b ec 3c 74 d8 2a 3d
       -0.013584267 0.0386197 0.02881424 0.041710332
000070 a6 b9 32 3c b9 8c 5d bd 45 4f 81 bd 67 b7 9c 3d
       0.01090852 -0.05408928 -0.063139476 0.07652169
000080 38 8f 93 bd 2e 0d a4 bc b9 bc c8 ba d2 a8 27 3d
       -0.07205051 -0.020025816 -0.0015315033 0.040932484
000090 d8 9b 6e bd 63 42 d8 3c 67 95 83 3d 15 52 f7 3d
       -0.058254093 0.026398843 0.064249806 0.12076203
0000a0 00 f9 f8 bd a9 b7 9d bd 8f ba fd 3b 39 bd fb bc
       -0.12156868 -0.07701046 0.007743187 -0.030729877
0000b0 62 8e 9e bc af 9f de 3c f4 e1 76 3d c2 5d 51 ba
       -0.019355003 0.027175752 0.06027408 -0.0007986688
0000c0 3f 6d 89 bd 24 ad 0e 3d 07 ef d1 3d 4b 06 42 3c
       -0.0671029 0.03483309 0.10250669 0.011842321
0000d0 69 5e 9a 3c 48 44 16 be 32 d1 68 3d f5 e8 ce 3d
       0.018843846 -0.14674485 0.05684013 0.10103027
0000e0 cf d1 7e bd ec a1 8a bc 7c 35 60 bd 24 a7 d5 bb
       -0.062211808 -0.016922913 -0.054738507 -0.006520169
0000f0 e7 74 9e bd 9e 78 21 3e 8c fe d8 3c cc 8c 8c bc
       -0.07737141 0.15768668 0.026488565 -0.017156981
000100 9f d6 e5 bc 53 d3 9c 3d 2b 61 1f 3d 42 f0 59 bd
       -0.02805644 0.076574944 0.038911026 -0.053207643
000110 44 e4 57 bd fa de f9 bc d4 b3 34 3d 80 e9 16 3d
       -0.052707925 -0.030501831 0.04411681 0.036843777
000120 af d4 96 3b 78 59 b2 39 0b bd c2 bc e7 fb 4a bc
       0.0046029906 0.00034017465 -0.023771783 -0.01238916
000130 1e a4 71 bc 4d 3b 12 bd 16 0a 1d 3d af 03 bd bd
       -0.014748601 -0.035701085 0.038339697 -0.09229218
000140 4e df df 3c 3b be d3 bb 71 b6 00 bc 51 bb 32 bd
       0.02732816 -0.006461886 -0.007855997 -0.04363567
000150 e3 f1 96 3c 1d 5b af bd e4 d4 90 bc 36 7d 24 bd
       0.018425887 -0.085623 -0.01767964 -0.040158473
000160 04 a2 94 bd af 0b 0d bd 0e 81 9d 3d 6f f6 54 3d
       -0.072574645 -0.03443497 0.07690631 0.05199283
000170 8f e8 14 3d 12 4b 3b bc fc 3d a9 bd 87 f1 02 3c
       0.036354598 -0.011431472 -0.08263776 0.007992155
000180 6f 37 5b bd f5 26 c4 bc 90 61 af bb d7 d1 d7 3b
       -0.053519662 -0.023944357 -0.0053522065 0.006586294
000190 57 9b b0 bc 2c 2f eb 3c a5 59 39 3d 04 d1 ad 3d
       -0.021558447 0.028709017 0.045251507 0.08487132
0001a0 9b 11 20 3d 2b 60 85 bc 90 09 52 bc 77 f1 76 3e
       0.03907929 -0.016281208 -0.012819663 0.24115549
0001b0 a0 05 3a 3d 15 49 17 3c 78 c3 fe bc 0b dd 1b 3d
       0.04541552 0.009233733 -0.031099066 0.0380526
0001c0 15 e0 07 3d b0 87 17 bd 23 35 eb bc 38 e1 91 3d
       0.033172686 -0.036994636 -0.028711861 0.07123035
0001d0 90 da d2 bc 7a 92 a1 bd 4b fb 30 bd 9f 53 25 be
       -0.025738984 -0.07889266 -0.0432084 -0.1614518
0001e0 30 c2 fe bb 77 b7 93 3d d9 42 b2 3d 26 bd 92 3d
       -0.007774614 0.072127275 0.087041564 0.071649835
0001f0 2a 24 6a 3d 0d 38 8b 3d 09 33 c0 bc 68 19 32 3d
       0.057163395 0.067978 -0.023461835 0.04348126
000200 ea 0f 86 3d c8 cc 75 3d 87 10 49 bc 20 1a 86 3c
       0.06546004 0.060009748 -0.012272007 0.01636988
000210 47 ee a6 3d 7a 9b c9 bc 7d cc 0e 3d b4 9e 63 bd
       0.081509165 -0.02461027 0.034862984 -0.055571273
000220 f2 35 63 3d e8 64 61 3c a4 4f 74 bd b8 23 82 bd
       0.055471368 0.013756968 -0.059646264 -0.06354469
000230 a6 9d b3 bd db b8 0d bc 08 ba 2c bc 83 ff 98 bd
       -0.087703034 -0.00865003 -0.0105424 -0.0747061
000240 65 13 b6 bd ec e9 7b bd af 96 b7 3c 9f 7b ed ba
       -0.08890418 -0.061502382 0.022410719 -0.0018118507
000250 55 4b 98 3c 7f 3f db 3d 6e 08 13 be 92 68 97 bd
       0.018590609 0.1070547 -0.14358684 -0.07392992
000260 d7 47 34 3d 04 61 c4 3c b1 88 fd 3c 80 b6 82 3d
       0.044013824 0.023972042 0.030948969 0.06382465
000270 83 a6 08 3d c8 08 b3 bc ba e9 63 3c 0b 42 9d 3b
       0.033361923 -0.021854773 0.013910705 0.0047991327
000280 b9 38 42 3c bc df 3c bd db ae 9e 3d 34 55 de bd
       0.011854344 -0.046111807 0.07748195 -0.10856095
000290 1c 8e 09 3d 9d c2 56 3e 62 d0 54 3c bd 39 d8 bd
       0.03358279 0.20972677 0.012989135 -0.10557888
0002a0 43 8a f1 3b 16 4e 89 bb 5d 0f a6 bd 6d 40 88 3d
       0.0073712184 -0.004190217 -0.08108399 0.06652913
0002b0 b9 ec 5a bd c5 55 0c 3e 4b c4 11 3d 40 62 c5 3c
       -0.053448413 0.13704593 0.03558759 0.0240947
0002c0 be ad 83 3d ab 74 ff 3b 2d ed 30 bd ee 08 fa 3c
       0.06429623 0.0077958903 -0.04319494 0.030521836
0002d0 b6 5f 66 bc 8e 6d 17 bd 07 60 c9 3d f0 94 a6 bd
       -0.014060905 -0.036969714 0.09832769 -0.08133876
0002e0 ce dc d5 3d d2 ba c2 3c c1 82 62 3d b5 b9 1b 3c
       0.10442506 0.023770723 0.055300478 0.009504725
0002f0 b3 c1 6a bd 50 c6 c2 3c ef 40 11 3b 4d d4 0e bd
       -0.057313632 0.023776203 0.0022163948 -0.034870435
000300 9c b0 17 3c ce 71 f2 bc c1 fe 8b bd 28 a0 36 3c
       0.009258416 -0.029595282 -0.068357 0.011146583
000310 48 c8 8e 3d dd 1f 71 bd e9 f2 9e 3c 1c 61 a0 bd
       0.06971794 -0.058868278 0.019402938 -0.07831022
000320 5a 76 aa 3d ec a0 e3 bc 37 a1 9f 3c 7e 72 8b bc
       0.08323355 -0.027786694 0.019486053 -0.017022368
000330 72 53 9f 3d 52 82 00 bc 74 d6 51 bd fc 8a 92 bc
       0.07779588 -0.007843571 -0.05122991 -0.017888539
000340 37 3f 43 3d b3 f3 af 3a d9 02 c5 3c 73 39 f4 3b
       0.04766771 0.0013424068 0.02404921 0.0074531375
000350 91 9f 83 3d c7 2a 73 bd e0 15 22 3d 1c b4 3d 3d
       0.06426919 -0.059366968 0.039571643 0.046314344
000360 e8 bb b0 3a e2 22 9a 3d 23 34 a4 3d 49 8a a9 3c
       0.0013483735 0.075261846 0.08017757 0.020695822
000370 73 8c 67 3d cb f7 0d bd 65 8c b1 3d 0a 2d a4 3c
       0.056530427 -0.034660142 0.08669356 0.020041008
000380 cf 2d c9 bd ce a9 eb 3c 77 2a 91 3c 62 e2 38 bc
       -0.098231904 0.028767493 0.017720444 -0.011284443
000390 a5 92 0e 3d aa 12 ff bb f0 91 6a bc 0d 09 8e bd
       0.03480782 -0.0077842074 -0.014317021 -0.0693532
0003a0 18 72 78 bd cd 44 a7 3d 4a 28 95 3d 56 03 cc bd
       -0.060655683 0.081674196 0.07283075 -0.09961574
0003b0 ee e0 fc 3c 70 fc 11 be c2 17 73 bc fa 9f d9 bc
       0.030868974 -0.14256454 -0.014837207 -0.02656554
0003c0 13 30 59 bd 94 ad 1b 3c 51 19 fb ba ac fe e0 bb
       -0.053024363 0.0095018335 -0.0019157325 -0.0068662968
0003d0 e3 16 9e bd 77 24 80 bd 77 d7 6c bd 7e 0e 28 3c
       -0.07719209 -0.06256955 -0.05782267 0.010257361
0003e0 a4 5c 00 3d 6b a6 c2 3d b9 5a 7d bd f9 5f 6f 3c
       0.03133835 0.09504398 -0.061854098 0.014610284
0003f0 7d 30 3c 3c 69 01 fe 3c 68 17 87 bd 81 2e b8 3d
       0.01148617 0.031006532 -0.06596261 0.08993245

model.model.model.2.bias f4 [128]
000000 8b 36 b1 3d 7f ac 95 bc ec 0c b2 3a 65 37 fb 3c
       0.08652981 -0.01827073 0.0013584173 0.030666063
000010 01 be e2 bc ab f4 ad b7 2a 26 97 3d 09 2d 51 3d
       -0.027678492 -2.073714e-05 0.07380326 0.05106834
000020 36 02 64 3d 21 25 3d 3d 20 63 2a 3d 52 df d2 3c
       0.05566617 0.046177987 0.04159844 0.025741253
000030 a5 90 7c bd 08 7c 69 3d 90 6c 1e 3d 1c 74 62 3d
       -0.06166138 0.05700305 0.038677752 0.05528651
000040 4c d1 c8 3d e6 0a d2 3c 84 37 a9 bb 20 b9 f6 3c
       0.09805545 0.025639962 -0.0051640887 0.030117571
000050 6a d4 77 3c 13 d4 15 bb c4 cf 27 bd 94 8e 56 bd
       0.015126327 -0.0022862002 -0.040969625 -0.052382067
000060 55 26 1e 3d ec 00 15 3d 13 ec 52 3d 41 82 49 bd
       0.038610775 0.036377832 0.05149467 -0.049196485
000070 d2 b1 a0 3d d6 df 8c bc 8b 13 3d bd 97 e3 0d bd
       0.078464165 -0.017196577 -0.046161216 -0.034640875
000080 c5 0b e3 3c 23 20 83 bb 30 7c 43 bc ed df 87 bc
       0.027715573 -0.0040016337 -0.011931464 -0.016586268
000090 08 b5 45 bd 9a 42 10 bd 9d 48 04 3d b6 e2 cf bc
       -0.048268348 -0.035219766 0.032295812 -0.025376659
0000a0 97 ec 16 bd 8d 50 cd bc 57 39 e5 3b a9 1f 42 bd
       -0.036846723 -0.025062824 0.006995361 -0.047393475
0000b0 21 69 21 3d 77 ce 80 3c ca ea 60 3d c4 e5 c8 3d
       0.0394069 0.01572345 0.054911412 0.09809449
0000c0 4e 93 8b 3c af 55 15 3c ac 18 43 3d 91 43 5e 3d
       0.017038014 0.009114667 0.04763095 0.054263655
0000d0 23 03 4d 3d a0 a7 7e 3d 5c 58 80 bd ae 4d 08 3d
       0.05005182 0.06217158 -0.06266853 0.033277206
0000e0 f7 8a 5b bd c8 c1 51 bc ec f7 29 3d a4 aa 86 bd
       -0.053599324 -0.012802549 0.041496202 -0.06575516
0000f0 37 50 04 3d 7a bc bb 3c 41 10 e4 bc 15 8f c0 3a
       0.03230306 0.022917021 -0.027839782 0.0014691079
000100 5c d4 ee 3b 8d 04 b7 bc 0a 0a 6e 3d 96 b8 07 3d
       0.007288499 -0.022341037 0.058115043 0.03313502
000110 e6 7a 2c 3d 4f b5 25 3d 55 b3 48 3d b0 57 f0 3b
       0.042109393 0.040456112 0.04899915 0.007334672
000120 53 5d c7 bb 77 ad 09 bd 90 c4 79 bc 2e 96 bf 3c
       -0.006084123 -0.033612695 -0.015244618 0.023387041
000130 72 43 96 3c 73 55 ef bc 54 55 51 3c 5f e7 4f bd
       0.018342707 -0.02921555 0.0127766915 -0.050757762
000140 79 c3 a5 3b 14 e3 0d bc 9b 50 05 3b 3c 20 0a bd
       0.0050587025 -0.008660097 0.0020342234 -0.033722147
000150 d5 85 c2 bb 6d aa e1 bc be c2 42 3d 5d 46 1b 3b
       -0.005936364 -0.027547086 0.047549002 0.0023693063
000160 11 45 ad 3c 32 b7 9d 3d 3f 5a cb bc 9e 2f 18 bd
       0.021151097 0.07700957 -0.024823306 -0.037154786
000170 0a 07 a9 3d 39 a3 b0 3c a7 e6 d1 bc b6 0c 55 3d
       0.08253296 0.021562206 -0.025622679 0.052014075
000180 ca 6e 57 bd 78 be 87 bd fa bc 69 bb bb 3c 72 3d
       -0.05259589 -0.06628126 -0.0035665617 0.05913995
000190 6f f6 b0 3d e6 3f 7b bc a0 c7 1c bd 25 1f 64 3d
       0.086407535 -0.015335059 -0.038276315 0.055693764
0001a0 ed eb 47 3d 5b b6 3d 3c 80 50 fd 3c 44 8e a7 3c
       0.04880898 0.011579121 0.030922174 0.02045358
0001b0 0f 61 12 bc 19 ef 91 3d 90 e0 34 bd e5 cd 83 3a
       -0.008934273 0.071256824 -0.044159472 0.0010055868
0001c0 73 30 0f 3c 46 64 18 bc d0 67 fb bb 9a 9e be bc
       0.008739579 -0.009301251 -0.0076722875 -0.023268986
0001d0 a2 bf 26 bd 7c 53 4e 3d 22 fa 95 bc ec 18 26 3d
       -0.0407101 0.050372586 -0.01830775 0.04055111
0001e0 f1 38 af 3d f0 e8 fa bc 56 45 24 bd 3b 12 35 bb
       0.085557826 -0.030628651 -0.040105186 -0.0027629274
0001f0 49 2f 92 bd 7f 6c 87 3c 2c 57 4a bd 07 cc 9e 3d
       -0.07137925 0.016531227 -0.04939954 0.07753759

model.model.model.4.weight f4 [64, 128]
000000 75 4d a8 bd 05 10 02 be a0 f4 e5 bb 32 ef 86 bd
       -0.08217899 -0.12701423 -0.007017687 -0.06588592
000010 1f 6a 9a bd 8b 05 6d 3c 10 b7 62 3c 1c 61 2a be
       -0.07539772 0.014466654 0.013837591 -0.16638607
000020 48 85 11 3c c3 4b 67 3d 9d 89 07 3d 14 71 68 3d
       0.008881874 0.056468736 0.033090223 0.056748465
000030 67 ca 0a bd a2 6e 43 3d c5 b7 1f 3d d2 23 15 bc
       -0.033884432 0.04771293 0.038993616 -0.0091027785
000040 dd d5 8a 3c a6 83 60 3c dd c6 48 bd 2d 6d a5 bd
       0.016947681 0.013703262 -0.049017776 -0.08077464
000050 5b c3 b8 3c 10 64 28 bd da 54 5b 3d 58 e4 74 3c
       0.02255409 -0.041111052 0.053547718 0.0149470195
000060 04 9b 36 bd 86 7f bd bd f7 a0 34 be 23 c5 8d 3c
       -0.04458143 -0.09252839 -0.17639528 0.017305916
000070 b0 62 58 3c bf f1 05 3d f0 1c 5b 3c 8d ee c0 bd
       0.013207123 0.03270125 0.013373598 -0.094205
000080 7e 85 dd bc cd 07 e6 bb d1 17 9c 3d 07 18 2c bd
       -0.027041193 -0.007019973 0.0762173 -0.0420151
000090 ea 8e 5b 3d ad e0 04 bd b8 4f 88 3b 16 04 af 3d
       0.05360309 -0.03244083 0.004159894 0.08545701
0000a0 51 8a fc 3c ca 93 9d bd 85 37 93 3d f8 8a de bc
       0.030827673 -0.07694204 0.07188324 -0.027165875
0000b0 f5 9b 65 bd c6 fe 0e bc 0a 7c cd 3c e4 e0 dd 3c
       -0.056056935 -0.008727735 0.02508356 0.027084775
0000c0 10 bf f8 3b e5 14 fb 3c f4 e2 a6 3d 76 b0 e8 3d
       0.007591136 0.030649612 0.081487566 0.11361782
0000d0 dd cd 42 3d 65 22 8d bc 13 a2 9a 3c 83 78 0b 3d
       0.047559608 -0.017228315 0.018876111 0.034050476
0000e0 c4 d5 ba bc a6 cc f7 3d 02 ae dd 3d e0 9d 49 3d
       -0.02280701 0.120995805 0.10824205 0.049222827
0000f0 ec bd 69 3d c3 4a 5f 3e 4c 04 c9 3c d2 0a 00 be
       0.05706589 0.21805863 0.024538182 -0.12504128
000100 88 b8 a4 bc c4 71 ab 3d 3b 37 fc bd f7 c4 89 3d
       -0.020107523 0.083713084 -0.12315222 0.06727021
000110 1a c2 b4 bd 43 10 8e bd 02 75 09 bd 4e 81 94 3d
       -0.088260844 -0.069366954 -0.033558853 0.072512254
000120 3e d6 aa 3d 47 4c b1 bd ad 27 16 3d 11 22 86 3d
       0.08341645 -0.08657127 0.03665893 0.065494664
000130 fe cf 85 3c 4f d9 7f bd 36 c3 2b bd 28 f6 9a bd
       0.01633453 -0.0624631 -0.041934215 -0.07566482
000140 78 2d 64 bc cd af 38 3d 81 82 07 be 95 60 24 bc
       -0.013926856 0.04508953 -0.13233377 -0.010032793
000150 cf b0 85 bd 4f 2a d2 39 2d 3e 88 3c b7 1e 92 3d
       -0.06527864 0.00040085844 0.01663121 0.07134765
000160 01 d9 1a 3d 6e 0f 62 3d ab df bb 3c 4f ff 57 bd
       0.037804607 0.055190496 0.022933802 -0.052733716
000170 97 a6 ae 3d 75 79 02 be 04 b1 8d bc d1 37 2f bd
       0.08527868 -0.12741645 -0.017296322 -0.04277784
000180 10 f2 bf 3d 2e bb 36 bd 18 5f 80 bc bc 12 f6 3d
       0.09372342 -0.044612102 -0.015670344 0.12015292
000190 84 8d 1e bc f1 29 2b bc c9 e5 18 3d 3d f8 d8 bd
       -0.009677295 -0.010447011 0.037328515 -0.10594223
0001a0 ce 44 d8 bc 6f c3 cd 3d 2b f7 ac 3d c0 54 64 bd
       -0.026399996 0.100470416 0.08445581 -0.055744886
0001b0 60 5d a1 bd 5a 40 e4 bd 53 fb 32 3c af 91 20 3d
       -0.07879138 -0.111450866 0.010924178 0.039201435
0001c0 9f c8 1a bd 80 3f ed 3b 4e 9d 79 bd 0f 55 95 3c
       -0.037788983 0.007240236 -0.060941033 0.018229036
0001d0 f1 2d 5c bd 10 26 14 bd 26 0e 5f 3c f6 d1 22 3d
       -0.05375475 -0.03616911 0.013614213 0.039751016
0001e0 b6 0d db 3d 08 6f 70 3d 9f 97 8b bd f5 bf 1a 3d
       0.106959745 0.058699638 -0.06816029 0.03778072
0001f0 ae 53 98 bd 6c fc 61 3d e6 52 98 bc be ca b7 bd
       -0.07437836 0.05517237 -0.018594217 -0.08974217
000200 12 b6 aa 3d c1 cd ad bd 09 08 4b bd d8 8c 7c 3c
       0.083355084 -0.0848651 -0.04956821 0.015414439
000210 0c a4 89 bd b4 4b af 3d a3 89 60 3d 12 ed a5 3c
       -0.067207426 0.08559361 0.05481876 0.020254645
000220 e1 fc df bc 3b 4d 6a bd f2 5c 04 bd b5 49 dc 3d
       -0.027342262 -0.05720256 -0.032315202 0.10756246
000230 b8 ea 87 3d b1 de 51 3d 14 a6 29 3d 08 56 7b 3c
       0.06636566 0.051237766 0.04141815 0.015340336
000240 ff 5e 7c bd 87 6c 2f 3d c8 24 b3 3d de 17 ce 3d
       -0.061614033 0.04282811 0.0874725 0.10063146
000250 4e a7 69 3c 67 f9 92 bd 24 a6 e4 3c 6a 59 70 bd
       0.01426108 -0.07176476 0.027911253 -0.058679022
000260 7e 46 a1 bd ec 7e 6f bd 97 10 3a 3e c8 3c 8c 3c
       -0.078747734 -0.05847065 0.18170391 0.017118827
000270 ca a2 84 3d bd 2a 69 bd 3c 85 5f 3d 23 c3 e9 bc
       0.06476362 -0.056925524 0.05457042 -0.028535431
000280 c4 69 d6 3c b3 4f d8 bc 58 ec 00 bd 2c 77 88 bd
       0.02617348 -0.026405191 -0.031475395 -0.06663355
000290 d9 9c 11 bd 74 72 41 bd 9b 5e a7 3d 6c 79 44 bd
       -0.035549972 -0.04722829 0.081723414 -0.04796736
0002a0 b5 f0 aa 3d 9e a9 01 be 57 ab 93 bd 79 54 3e bd
       0.083466925 -0.1266236 -0.07210415 -0.04646728
0002b0 95 52 9b bd 23 01 cd 3d 3d 0a 63 3d 62 b2 02 bd
       -0.07584111 0.100099824 0.055429686 -0.0319084
0002c0 0f ca 4b 3c bf 46 83 bd 79 01 8f bd 74 36 87 bd
       0.012438311 -0.06409978 -0.06982703 -0.06602183
0002d0 a5 79 cd 3d de 91 a3 3d 63 c5 4c bd b4 6d 08 3d
       0.100329675 0.07986806 -0.04999293 0.033307746
0002e0 a0 77 8b 3d f4 24 bb bc 80 de 36 bd 39 fe 0e 3e
       0.06809926 -0.022844769 -0.044645786 0.13964166
0002f0 a0 2c 71 3d 07 72 9a 3b 78 57 f2 bd c5 36 ef 3d
       0.05888045 0.0047133 -0.118330896 0.11680368
000300 a7 ed 88 bd 95 7e 83 bb 81 48 4d 3d e8 09 5d bd
       -0.066859536 -0.0040128925 0.050117973 -0.053964525
000310 65 19 c3 bc 53 90 15 3e 70 d1 6a bd aa ae 41 3d
       -0.02381582 0.14605837 -0.05732864 0.047285713
000320 72 1d b9 3d 94 5e 3a bc f8 9b 57 3d 2a 8d c9 bd
       0.090388194 -0.011375088 0.052638978 -0.09841378
000330 19 51 d4 bc f6 f0 33 3e d4 73 2a bd 36 a4 f0 3c
       -0.025917577 0.17572388 -0.04161437 0.029375177
000340 5c d5 d3 3c 86 46 40 3d e0 5e cd bd d9 32 12 3d
       0.025858574 0.046942256 -0.100278616 0.035693023
000350 db 29 dc 3d 0a 06 e6 3c d9 c0 be bd 2c d5 88 bd
       0.10750171 0.028079052 -0.093141265 -0.06681284
000360 c3 c7 92 3d 8a 14 17 be e6 12 6d bc 12 a0 02 3d
       0.07167008 -0.14753929 -0.014469838 0.031890936
000370 78 1d 80 bc 55 86 02 be 67 14 01 3e 1a ba ae 3d
       -0.015639052 -0.12746556 0.12605439 0.0853159
000380 d4 4a c5 bd d1 d7 a3 bc 0d c4 15 3b 69 d1 92 3d
       -0.09633413 -0.02000037 0.002285245 0.07168848
000390 42 bf 08 3e 9d ef dd bc df ed c7 3d 3b c3 92 3d
       0.13354209 -0.027091796 0.09762167 0.071661435
0003a0 54 43 c2 bc 0a fa 19 bd d1 b2 4a bc d5 35 17 bd
       -0.023713745 -0.03759197 -0.012371735 -0.036916573
0003b0 39 4d 29 bd 21 7a 57 bd f1 10 d1 bd 07 ee f0 3d
       -0.04133341 -0.052606706 -0.102083094 0.1176415
0003c0 da 30 6b bd d3 e4 5d bd ec b7 eb bb 68 ce 5d 3d
       -0.057419635 -0.054173302 -0.007193556 0.054151922
0003d0 a8 fe 1b 3d e3 60 70 3d 45 bf bd 3d c7 69 4b 3d
       0.038084656 0.05868615 0.092649974 0.049661424
0003e0 d2 55 ac 3c b2 d9 4e 3d 3a 89 ca 3c 77 4e e2 3d
       0.021037016 0.05050058 0.024723638 0.11050122
0003f0 91 0c 76 3d 5b e3 0b 3d a7 25 df 3c c9 42 61 3c
       0.060070578 0.03415237 0.027239634 0.013748833

model.model.model.4.bias f4 [64]
000000 ff a0 0a 3d a6 3b 94 3d c8 fb 73 bd f4 da 71 bc
       0.033844944 0.072379395 -0.05956629 -0.014761675
000010 a0 f6 c6 3d 57 4f 93 bd b7 a5 ab 3d f9 54 8b 3d
       0.09715009 -0.07192867 0.08381217 0.068033166
000020 33 8d 33 bc da 2e ab 3d 82 b4 cb 3c df ee f8 3c
       -0.0109589575 0.083585456 0.024866346 0.03038734
000030 a6 cc a4 bd 83 dc 7e bd 44 08 5e 3b 3e 9a 6d 3a
       -0.08046846 -0.062222015 0.0033879438 0.00090638164
000040 69 fb 16 bd 1b ef 75 bd 3a 2f aa 3d 38 f8 1e 3d
       -0.036860857 -0.060042482 0.08309789 0.03881094
000050 6a 77 93 3d 29 c2 4c 3d 38 67 88 bd e7 8a 5f bc
       0.07200511 0.049989853 -0.066603124 -0.013643957
000060 ff f5 b2 3d a8 83 11 3d 24 b8 db ba 2c 0c 2f bd
       0.08738326 0.035525948 -0.0016763252 -0.042736217
000070 ce b0 07 bc 16 b9 9f 3d 25 f0 8a bb d9 74 0b 3d
       -0.0082819 0.07798974 -0.0042400532 0.03404698
000080 01 8b 6c bd d0 0f 09 bd fd bf e0 3c ae ed 01 3d
       -0.057749752 -0.033462346 0.027435297 0.03172081
000090 ca 50 9f bd a1 2b 9e bd f6 af e5 bc 4b a8 f8 3c
       -0.07779081 -0.07723165 -0.028038006 0.030353686
0000a0 fe 86 99 bd f2 b8 28 3c 3c f6 b2 3c 47 40 cc 3d
       -0.07496451 0.010298001 0.02184593 0.099731974
0000b0 ff ac 20 3d f1 7c 37 3b e2 94 a7 bd 4a 3c ee bc
       0.039227482 0.0027998055 -0.08182694 -0.029081482
0000c0 98 11 5a bd 0a b5 5e bd 5d f8 78 3d 23 38 ad bd
       -0.053239435 -0.05437187 0.060783733 -0.08457973
0000d0 0b d7 38 3b 31 fa 4d bd 3e 96 76 bd 63 7e 8c bd
       0.0028204347 -0.05028743 -0.060201876 -0.06860044
0000e0 45 46 23 bd 8c 6b 29 bd 4c 81 7e bd 88 41 85 bd
       -0.039861936 -0.04136233 -0.062135026 -0.0650664
0000f0 ba 63 2b bb b2 6c 47 bd cf 09 8a 3d b7 7c 50 3d
       -0.002615197 -0.048687644 0.06740152 0.050900187

model.model.model.6.weight f4 [9, 64]
000000 78 0c fd bd 9c dd 18 be 74 0f 1d 3d 9c 3b dc bd
       -0.12355894 -0.14928287 0.038344815 -0.10753557
000010 7c b5 2c 3e ca 86 11 3e 87 58 e2 3d ff ec 8d bd
       0.16866106 0.14211574 0.110520415 -0.06929969
000020 c1 d3 0b 3e 61 a8 3f 3e e1 e4 07 3e 26 48 a9 bd
       0.13654996 0.18716575 0.13270904 -0.08265714
000030 64 41 fb 3d aa 66 00 be bd 04 b0 3d 4d 5a 58 bd
       0.12268332 -0.12539163 0.08594654 -0.052820493
000040 41 5a 8a 3d 3f 80 58 bd 68 83 ef 3d 4a f5 c0 3d
       0.06755496 -0.05285668 0.11694986 0.09421785
000050 b9 31 3a 3d d3 30 23 be 00 d6 66 bd af 15 03 3e
       0.045457575 -0.15936594 -0.05635643 0.1280124
000060 84 21 0b be 5a c7 af 3d 6d 59 ab bc e7 03 94 3d
       -0.13587004 0.08582945 -0.020916665 0.07227307
000070 8d 2f fc 3d 98 7f 30 3e 6a b6 49 3c fc 28 1f be
       0.12313757 0.17236173 0.012311557 -0.15542978
000080 cc 1c cb 3d 8e 08 00 3e 9d 49 fc bd 1b 4c 58 bd
       0.09917602 0.12503263 -0.12318728 -0.052806955
000090 b4 2d bb bc 3c 50 31 be 79 7d 3d 3e 4d f0 c4 bd
       -0.022848941 -0.17315763 0.18504895 -0.09616146
0000a0 6e 60 8e bc db a1 cb bd 97 c4 45 3d 28 bc d7 bd
       -0.017379966 -0.09942981 0.048283186 -0.10533935
0000b0 71 d2 90 3d c5 1a 2e be f6 a6 f7 bd b2 ec 9e bd
       0.070713885 -0.170024 -0.12092392 -0.0775999
0000c0 f3 58 e6 3d fb 90 2c 3d 83 30 1f be bc ee 08 bd
       0.112474345 0.04213045 -0.1554585 -0.0334308
0000d0 26 37 8c 3d f0 c1 14 3d a2 a6 84 3d 14 54 24 3e
       0.06846456 0.036317766 0.06477095 0.16047698
0000e0 0a 56 59 bd 2b 7b 6a bd 11 1d 2a be 76 bf 45 3c
       -0.05306057 -0.05724637 -0.1661265 0.012069574
0000f0 aa e9 3b 3e 7a 76 89 3d b3 86 0b ba 9f 8f 40 be
       0.18350855 0.06712051 -0.0005322501 -0.18804787
000100 ad c1 93 3d 89 0d 1c 3e fb 39 9b bc 7b 95 5f 3c
       0.07214675 0.15239538 -0.018948546 0.013646479
000110 5f c3 ab 3d 60 41 ce 3d ad 46 0e bb 4b 61 d9 bd
       0.083868735 0.10071063 -0.0021709607 -0.1061426
000120 c7 9e b9 3d 91 91 fd bd 41 e6 cf 3c 91 a6 ef bd
       0.090634875 -0.1238128 0.025378348 -0.11701692
000130 d2 dd ba bd 76 a7 85 bd 97 0f 96 bc 2d 30 fb bd
       -0.0912434 -0.06526081 -0.01831798 -0.12265048
000140 49 0e 89 bd e7 21 24 be ce 17 1f 3e c2 95 ed b9
       -0.06692178 -0.16028558 0.15536425 -0.0004531574
000150 c1 fb f5 bd b3 c2 af bd fb ef ff bd 87 99 97 bd
       -0.12010909 -0.08582058 -0.124969445 -0.0740233
000160 c3 7f df bd 79 0d d8 3a 39 65 6a 3d 89 29 07 be
       -0.109130405 0.0016483507 0.05722544 -0.13199438
000170 31 1b 9c bd 6f cb 1e be b5 a6 48 3e 7b 6c bf bd
       -0.07622374 -0.15507291 0.19594844 -0.09346863
000180 20 16 19 bd 66 33 64 3c 53 7f 38 3e 25 b8 d1 bd
       -0.037374616 0.01392827 0.1801732 -0.10240201
000190 63 9a 5b 3d b5 87 32 be e1 2d e6 bd cd 59 cb 3d
       0.05361403 -0.1743458 -0.112392195 0.099292375
0001a0 a1 b2 1b be 4a 83 0f be 90 75 ff 3d 01 89 c6 3d
       -0.1520486 -0.14014927 0.12473595 0.096941
0001b0 07 28 c7 3d cb 92 eb 3d 4f 4a d6 bd 60 5e d5 3b
       0.097244315 0.11502608 -0.10463392 0.0065114945
0001c0 6d 22 d2 bb b6 7e 66 3d b7 dc 1a 3c 64 47 1a 3d
       -0.0064127953 0.056273185 0.009452037 0.03766574
0001d0 70 08 1e 3e 10 53 df 3d 00 48 ea bd 96 c1 b8 3c
       0.15432906 0.10904515 -0.11439514 0.022553246
0001e0 06 2f 6c bc 2e f9 0f 3d a5 e8 87 3d 82 1a 49 3c
       -0.014415508 0.035149746 0.0663617 0.012274386
0001f0 07 67 8f 3d d0 3e c5 3d a8 c1 a4 bd 72 6f 8e bd
       0.07002073 0.09631121 -0.080447495 -0.0695485
000200 6c 2c 1e be ac 15 c6 3d 94 17 1d bd e8 db 42 3d
       -0.15446633 0.09672102 -0.038352564 0.047573
000210 3a 3a c3 bd 1f c4 c2 3c b0 a2 07 be d4 0f dd 3c
       -0.0953259 0.023775158 -0.13245654 0.026985087
000220 c4 2c 01 be 70 81 9e bd a5 9f 2e 3e 3b 0e 02 bc
       -0.12614733 -0.07739532 0.17053087 -0.007937963
000230 b0 99 1e 3c 1d 11 48 3e 5b 37 24 be ad 6a 38 be
       0.009680197 0.19537778 -0.16036741 -0.18009444
000240 66 f7 e9 3d 87 7e 70 bd 51 4d 38 3c 68 6b 11 3e
       0.11424141 -0.058714416 0.011248902 0.14201128
000250 e3 0e 05 3e 68 ee 6b bd a1 d2 d1 3d 6d ef 81 bd
       0.1299396 -0.05760041 0.102452524 -0.06344495
000260 b3 7c 9a bd cd 14 13 3e bd 3b 99 bd 32 7c 2c 3e
       -0.07543316 0.14363404 -0.07482097 0.16844252
000270 c4 8e da bc 65 fa 16 3d 69 62 1f 3e 8b d6 0a 3e
       -0.026679404 0.03685989 0.15564884 0.13558404
000280 98 a6 f9 bd f0 b7 8a 39 d2 54 f6 3d d0 d1 ee bc
       -0.12189978 0.00026458455 0.12027897 -0.02915278
000290 e0 3c 31 3c 70 b6 4f bd 8f 4c 5a 3c 7e fb 2c be
       0.010817736 -0.050711095 0.013323917 -0.16892812
0002a0 5b 64 fc bd cc 6a 21 be d1 b1 d7 3d b0 23 ea bc
       -0.12323829 -0.15763396 0.10531963 -0.02858147
0002b0 10 5a 8c 3b da 86 21 be f7 ea 45 3e f0 c7 64 bc
       0.004283197 -0.15774098 0.19327913 -0.013963684
0002c0 fe 7b 9c bd 38 17 00 3e e2 88 0b be d8 00 9f 3c
       -0.07640837 0.12508857 -0.13626435 0.019409582
0002d0 91 81 56 bd 6a d7 15 3e 25 cd 27 bd 44 56 a6 bd
       -0.052369658 0.14632955 -0.040967125 -0.081219226
0002e0 e8 e3 25 3b 9b b4 f9 bd 02 fb 9d 3d ae 42 2c 3e
       0.0025312845 -0.12192651 0.077138916 0.16822311
0002f0 38 22 04 3d 98 52 ca bc e4 8f 14 3e d6 7a c8 bd
       0.032259196 -0.024697587 0.14508015 -0.09789054
000300 05 69 d0 3c ac 28 18 bc d2 6e a3 3d 06 69 2d be
       0.025440702 -0.009287041 0.07980122 -0.16934595
000310 20 d7 47 3d f2 2a 16 3d 60 85 e6 bd 11 b8 7b 3d
       0.048789144 0.03666205 -0.11255908 0.061454836
000320 80 7f d8 3d be 79 30 bd eb 9a 97 3d 6d 7a 1b be
       0.10571194 -0.043084852 0.07402595 -0.1518342
000330 e0 bb bc 3c 94 29 fe bd 74 b2 03 be 47 5c 9e 3d
       0.023038805 -0.12410274 -0.12861043 0.07732444
000340 ad aa 77 bc 36 26 9a 3c 5e d0 b2 bd 62 75 50 3e
       -0.015116376 0.018817049 -0.08731149 0.20357278
000350 24 97 a2 bd 00 09 13 3e 9a 9c e9 3c ec 37 0b be
       -0.07938984 0.14358902 0.028517056 -0.13595551
000360 19 1a 47 be 13 85 8f bc 19 13 43 be 02 d3 ed bd
       -0.19443549 -0.01751951 -0.19050254 -0.11612512
000370 ff b7 fa 3d 8c a0 cd 3c 08 2f 01 3e c1 22 57 3b
       0.12242126 0.025100969 0.12615597 0.0032827111
000380 51 5c 1c 3e 68 77 37 3e 75 9f f9 3d ac 5c df 3d
       0.15269591 0.17916644 0.12188617 0.10906348
000390 ef ef e1 3d c0 7f bf bd 6a 54 06 3e 71 ac 1e be
       0.11032092 -0.09350538 0.13118139 -0.15495469
0003a0 76 be e2 3c 97 db 79 3d dd f6 4e bb e4 dd a1 3d
       0.02767871 0.061000433 -0.0031580247 0.079036504
0003b0 fc d1 94 3d 02 9d ea bb 04 1d f4 b9 86 04 91 bd
       0.07266614 -0.00715983 -0.00046560925 -0.07080941
0003c0 d4 fb b9 3d ca a3 41 3d 74 59 25 3b 0e ec f2 bd
       0.090812355 0.047275342 0.002523032 -0.1186143
0003d0 d0 b1 78 bb 13 51 5b bd bc 8e 3a be 8c 4d 10 be
       -0.0037947781 -0.053544115 -0.18218511 -0.14092082
0003e0 d3 59 52 bd fc 70 ae bd e1 b6 43 bc 3f 40 fe 3c
       -0.051355194 -0.08517644 -0.011945457 0.031036494
0003f0 c0 0e 1f 3e e8 02 a1 3c 78 92 d6 3d d3 05 03 3e
       0.1553297 0.019654706 0.104771554 0.1279519

model.model.model.6.bias f4 [9]
000000 a1 00 35 3d 34 33 22 3d 0c 64 95 bc a1 f1 f6 3b
       0.044190053 0.039599612 -0.018236183 0.0075361286
000010 59 b5 c1 3c bd fd e1 3d d3 65 ec 3d 6e 20 d2 bb
       0.023646044 0.11034725 0.11542859 -0.0064125573
000020 59 a5 9a bd
       -0.07551069

model_old.model.model.0.weight f4 [256, 18]
000000 75 f6 71 3e f8 6a b2 bd 94 0f 0d be b4 96 17 3d
       0.23629172 -0.08711809 -0.13775474 0.037008956
000010 ac b3 33 3e 03 c6 28 3d a7 0b 1e be 22 b4 a3 3d
       0.17549008 0.041204464 -0.15434133 0.07993342
000020 d4 90 3b be f3 2b 58 bc 49 57 4e 3e 6b 5b 8a bd
       -0.18316966 -0.013194072 0.20150484 -0.06755718
000030 62 3d 93 3d 62 47 b5 3b 57 7a 11 bd 0a 25 14 3e
       0.07189442 0.005532191 -0.035517063 0.14467254
000040 ef 9c 02 3e 57 b9 30 3d 71 c5 25 be b3 61 1c bd
       0.12755178 0.043145504 -0.16188599 -0.03817911
000050 f8 fa 95 be e0 07 a0 ba 5b 68 36 bd c9 d1 a3 b9
       -0.29293036 -0.0012209378 -0.044533115 -0.00031246085
000060 02 38 34 bd d3 a5 12 3e fd 85 2d 3e cd 40 a5 bd
       -0.043998726 0.1432107 0.16945644 -0.080690004
000070 8c 96 f6 3c e4 11 d3 3d 5c 83 ba 3d 83 30 bd 3d
       0.030101083 0.10306147 0.09107086 0.092377685
000080 09 9b 7e 3d 58 a3 e1 bd a9 ff 7e 3d 21 37 52 3d
       0.06215957 -0.110174835 0.062255535 0.051322106
000090 05 76 74 be 86 7c 85 3e b2 5e 56 3d 84 30 8d bd
       -0.23873146 0.26071566 0.052336402 -0.06894019
0000a0 47 e8 03 3d fe 5e c5 bd 96 bf 7c 3d 88 be 2d 3e
       0.03220394 -0.09637259 0.061706148 0.16967213
0000b0 1a 2e ad be 09 8c 65 3d a7 2c a9 3c 28 ff 55 3d
       -0.33824235 0.05604175 0.020651175 0.05224529
0000c0 3d d5 88 3d 4e 70 98 bd e8 72 80 3e be 4e a2 3d
       0.06681297 -0.074432954 0.25087667 0.07925175
0000d0 37 4f 91 3e f7 1d 0d be 5d 34 e7 bc fa eb 60 3e
       0.2838075 -0.13780962 -0.028223211 0.21965018
0000e0 66 fd 69 3e f4 93 61 be 99 eb e0 3d 2e 93 6b 3e
       0.2285057 -0.22029096 0.10982437 0.23005363
0000f0 7f 22 2d be f0 7a 3d 3e cb bb 90 bc b6 66 39 3e
       -0.1690769 0.18503928 -0.017667672 0.18105587
000100 c2 7b 93 bd 68 eb d3 bd 33 ef 85 bd c4 dc 43 3e
       -0.07201339 -0.103476346 -0.06539764 0.19127184
000110 7e 49 2b be 5d c3 20 be aa d6 50 3e ae c4 43 bd
       -0.16727254 -0.15699525 0.20394388 -0.04779499
000120 87 71 f7 3d 0b 01 33 3e 5d d6 bf be cf 4c 7a 3c
       0.120822005 0.17480867 -0.37468234 0.015277102
000130 76 47 c7 bd e6 d2 5a 3e 24 b2 af 3e f6 6b 10 be
       -0.09730427 0.21369514 0.34315598 -0.14103684
000140 d0 4d 84 3e df 3a 22 3e 2c 6e cb 3c 47 28 c1 bd
       0.25840616 0.1584277 0.024832807 -0.094315104
000150 cc 3c 06 be 19 bf ee bc 91 5e 0c be 9a 85 32 3e
       -0.1310913 -0.029143857 -0.13707949 0.17433777
000160 ab d2 3e bd e5 c5 57 3e 4d c7 59 be d8 86 66 3e
       -0.046587627 0.21071585 -0.21267433 0.22512376
000170 47 29 0f 3e 2e 12 ff bd b7 20 85 bc 06 59 46 3c
       0.1398059 -0.124546394 -0.016250951 0.012106186
000180 2b 4d a2 3d e2 30 a1 3b 04 40 7d be 83 85 67 3d
       0.07924875 0.0049191574 -0.24731451 0.05652381
000190 1c 79 6c 3e 61 1c 4f be 55 70 2f 3e 65 dd f5 bb
       0.23093075 -0.2022567 0.17132695 -0.007503199
0001a0 28 25 0c be 21 99 aa 3d 9a 5f 8a 3e 32 51 58 be
       -0.13686049 0.08329988 0.27026063 -0.21124724
0001b0 61 20 a3 3e f0 f2 ce bd 32 d2 8d be 20 17 5e 3b
       0.3186064 -0.101049304 -0.2769943 0.0033888295
0001c0 b3 2a 7b 3e 57 54 43 be 6a b9 df bd 87 1b 92 3d
       0.24528007 -0.19075142 -0.10924037 0.07134157
0001d0 5c bc 5e 3e db 47 53 be 2f 6b 05 be 7f 52 4f 3e
       0.21751541 -0.2063288 -0.13029169 0.20246314
0001e0 32 fd ca 3c 8d dd 4d 3e 58 c9 d1 bc d9 d4 23 be
       0.024778936 0.20104046 -0.025608703 -0.15999164
0001f0 c3 d5 f0 3d e2 94 86 3d 32 ba e5 3d e7 01 ea 3c
       0.11759522 0.06571366 0.112171546 0.02856536
000200 1a 84 1e 3e bc 60 99 bd 8d 8b 20 be 11 ce 6f 3e
       0.1548008 -0.07489154 -0.15678234 0.23418452
000210 1a fb 7e 3e 00 40 0f be 97 28 b9 be 71 ec 55 3e
       0.24900475 -0.13989258 -0.3616378 0.20890976
000220 dd 2b 04 3e 58 cc e1 bd 98 7a 42 bd a4 8c 59 3e
       0.12907358 -0.110253036 -0.047480196 0.21245056
000230 e0 63 75 3b 9b 43 44 be f2 e1 45 bc c6 1a c4 bd
       0.0037443563 -0.19166414 -0.012077795 -0.09575419
000240 a0 67 20 3e 65 5f 36 3e 8e 0c 81 3e b1 91 97 ba
       0.1566453 0.17809828 0.2520489 -0.0011563805
000250 f1 6d 7e be 89 27 66 3e fe 57 10 be 36 5a 80 bd
       -0.24846627 0.22476019 -0.14096066 -0.06267206
000260 b6 87 33 be 09 8c de 3d 36 35 3f be e3 38 9f 3d
       -0.17532238 0.10866553 -0.18672642 0.07774522
000270 fd 67 6e 3e d7 0b 70 3b f0 2e b4 bd b1 38 74 bd
       0.23281856 0.003662815 -0.08798015 -0.059624378
000280 95 04 22 3e ef 97 1f be 74 de b6 3e c6 5e 0f be
       0.1582206 -0.15585302 0.35716593 -0.14000997
000290 cd 22 ac bd f5 f6 e9 bd c8 04 0c 3e 12 43 41 3d
       -0.08405075 -0.114240564 0.13673699 0.047183104
0002a0 99 6a 31 be 8b 45 18 bd 9f 6d e4 3d 48 e0 2e be
       -0.1732582 -0.037175696 0.11153721 -0.17077744
0002b0 07 ee 35 bc 4f fd 58 3e 1c ce 74 3d 9c 87 db 3d
       -0.011104113 0.2119038 0.059766874 0.10719225
0002c0 cb 30 f7 3d dd 28 36 3e e5 68 97 3d 7d e8 3c 3d
       0.120698534 0.17789026 0.07393054 0.046120156
0002d0 6e 44 fc 3b 24 bb 82 bd cd 76 8c 3d 23 12 6c bd
       0.007698587 -0.063833505 0.06858597 -0.057634484
0002e0 bf a4 0a be 57 e0 36 3e 40 34 9b 3e 30 11 6b 3b
       -0.13539408 0.17859016 0.303133 0.00358684
0002f0 23 e3 35 3e f8 0f e8 3a 89 14 c4 3d db 9b b9 3d
       0.17762427 0.0017704954 0.09574229 0.0906293
000300 d8 f6 89 3e d5 8b 13 3e a2 ea dd bc 8e 27 e1 3c
       0.2694614 0.1440881 -0.02708942 0.027484681
000310 c9 a1 4c bd 47 62 09 3c 4e 96 79 bd 72 49 5f 3e
       -0.049958978 0.008385248 -0.060934357 0.21805361
000320 b5 c4 b2 bd 7c 83 ad ba 5a 7b 5f bd 47 a5 4c be
       -0.08728925 -0.0013238038 -0.054560997 -0.19984923
000330 19 6b 59 be b3 f8 71 bc 00 7a 62 3e e2 bb ae bc
       -0.21232261 -0.014768767 0.22116852 -0.021329824
000340 71 10 84 3e 7a 28 77 3e dd 16 db bc 08 07 cf bc
       0.25793794 0.24136534 -0.0267443 -0.025271907
000350 16 25 41 bd 3e 69 3d be 81 0a c2 bd 6d 55 4c be
       -0.04715451 -0.18497178 -0.0947466 -0.19954462
000360 d9 1a 8a 3d 33 1f 69 bd ec 35 92 be 76 27 25 3e
       0.06743402 -0.05691452 -0.28556764 0.16128334
000370 bc 1e 67 3e 5b 07 89 3e 20 13 0e be a4 ec 41 be
       0.22570318 0.26763424 -0.13874483 -0.18937927
000380 99 04 12 be 55 cd 24 3d 69 51 6b 3e 5c 44 10 be
       -0.14259566 0.040234882 0.22980274 -0.14088577
000390 f2 30 cc bd 04 11 2c 3d 17 23 2d 3e 24 7e 1c bd
       -0.09970273 0.042008415 0.16907917 -0.038206235
0003a0 72 bd 12 bd 0b aa 6c be 80 f3 83 be 9c 4a 5d be
       -0.0358252 -0.23111741 -0.25771713 -0.21610492
0003b0 05 c2 35 3e 7b c9 68 3e 92 f7 8f 3e 11 00 75 be
       0.17749794 0.22733109 0.2811857 -0.23925807
0003c0 99 4f 90 bd c8 f5 53 be 57 84 69 bd fb fd 83 3e
       -0.07046432 -0.20699227 -0.057010975 0.2577971
0003d0 de c0 44 3d 73 c1 a7 3d f1 b7 82 bd 52 46 80 3e
       0.048035495 0.081911944 -0.0638274 0.2505365
0003e0 bd 37 0a be 5d d6 ce bc 2e b4 c6 3d b4 b7 e2 bd
       -0.13497825 -0.0252487 0.09702335 -0.11070195
0003f0 98 1e 01 3e ea 93 66 bd 68 6a 78 bd 5b f8 ef 3b
       0.12609327 -0.056293406 -0.060648352 0.0073233075
