log/tic_tac_toe/ddqn_mlp/policy.pth (torch, 377443 bytes, 16 tensors)

model.model.model.0.weight f4 [256, 18]
0	0x3e365880	0.17807198
1	0xbdbbe0f6	-0.09173767
2	0xbdc3fcfb	-0.095697366
3	0x3d1af09c	0.03782712
4	0x3e11368c	0.14180964
5	0x3d37531c	0.044756994
6	0xbde7ab10	-0.113119245
7	0x3d8c541a	0.068519786
8	0xbe2f8e51	-0.17144133
9	0xbd3f8c24	-0.046764508
10	0x3e2eb741	0.17062093
11	0xbdb61a87	-0.088917784
12	0x3d27cb12	0.040965147
13	0xbb805669	-0.003916551
14	0xbd931a5e	-0.071827635
15	0x3e1a3a1d	0.15061231
16	0x3e158846	0.14602765
17	0x3d32c4c3	0.043644678
18	0xbe07ed81	-0.13274194
19	0xbd7808a5	-0.06055512
20	0xbe950ef5	-0.29112974
21	0xbbb6f5a0	-0.00558348
22	0xbcb825ef	-0.022479026
23	0xbc0b614a	-0.008507082
24	0xbcc6818d	-0.024231697
25	0x3e1c7d61	0.15282203
26	0x3debd9ce	0.11516152
27	0xbd0f75e8	-0.035024554
28	0x3d67d6aa	0.056601204
29	0x3dd89ed7	0.10577171
30	0x3dd1e296	0.10248296
31	0x3dacaf58	0.08431882
32	0x3cb26b99	0.021779822
33	0xbdbd1210	-0.09231961
34	0x3da25ee3	0.079282545
35	0x3d4b631d	0.04965507
36	0xbdbef502	-0.09324075
37	0x3e52f24d	0.20600243
38	0x3d67595d	0.056481708
39	0xbd686d8e	-0.056745104
40	0x3da0fad3	0.07860341
41	0xbd651625	-0.05592932
42	0x3e20a902	0.15689471
43	0x3e256f3a	0.16155711
44	0xbe85adb4	-0.26109087
45	0x3d40d661	0.047079448
46	0xbad59aa6	-0.0016296699
47	0x3d8cb67a	0.06870742
48	0x3d596428	0.053074032
49	0xbcd9ad0f	-0.026571779
50	0x3e8ed951	0.27900174
51	0x3e0d3098	0.13788068
52	0x3e815ae4	0.25264657
53	0xbe17262a	-0.14760652
54	0x3be4ebb0	0.006986104
55	0x3e82eb2a	0.2557004
56	0x3e78e2b9	0.24305238
57	0xbe4cf307	-0.20014583
58	0x3e3265e8	0.17421687
59	0x3e4fd44e	0.20295832
60	0xbe175bd8	-0.1478113
61	0x3e56addd	0.20964761
62	0x3c8226cc	0.01588764
63	0x3e59df53	0.21276598
64	0xbd67560a	-0.056478538
65	0xbd96ce0a	-0.073635176
66	0xbcd1efc1	-0.025627019
67	0x3e459117	0.19293629
68	0xbe2ebcac	-0.1706416
69	0xbe1c7cca	-0.15281978
70	0x3e2c2ba8	0.16813529
71	0xbc9c3c18	-0.019071624
72	0x3e1c9682	0.15291789
73	0x3e5d4bf4	0.21611005
74	0xbe871e6d	-0.263904
75	0xbc576c90	-0.013148442
76	0xbd5a5d7d	-0.053311814
77	0x3e402662	0.18764642
78	0x3e9e89f4	0.30964625
79	0xbdd4bc64	-0.10387495
80	0x3e56fa9f	0.20994042
81	0x3e2bb9dd	0.1677012
82	0xbc28e464	-0.010308359
83	0xbd920f1c	-0.07131788
84	0xbe337c67	-0.17527924
85	0x3bcb107f	0.006197035
86	0xbe13b0fa	-0.1442298
87	0x3e1eb3f5	0.15498336
88	0xbb7111e3	-0.0036784343
89	0x3e3a32d8	0.18183458
90	0xbe2fd231	-0.17170025
91	0x3e5e1df0	0.21691108
92	0x3e3821d4	0.17981654
93	0xbe2e87e7	-0.1704403
94	0x3c1557ec	0.0091152005
95	0xbc6f3765	-0.014600609
96	0x3cbe34aa	0.023218472
97	0x3d6f2bc2	0.05839134
98	0xbe4cb405	-0.19990547
99	0x3d137e58	0.036009163
100	0x3e5273d7	0.20552002
101	0xbe408280	-0.18799782
102	0x3e222a12	0.15836361
103	0xbc9ea070	-0.019363612
104	0xbe0ace2c	-0.13555211
105	0x3da9e270	0.08295143
106	0x3e6e2646	0.23256788
107	0xbe39ba6e	-0.18137524
108	0x3e6efbf3	0.23338298
109	0xbdb3bfda	-0.08776827
110	0xbe63087a	-0.22171202
111	0xbd1e3921	-0.0386287
112	0x3e8dd987	0.27705023
113	0xbe3a78a3	-0.18210082
114	0xbdec0b4a	-0.11525591
115	0x3d63a1d8	0.055574268
116	0x3e3699d6	0.17832121
117	0xbe84e881	-0.25958636
118	0xbde8328a	-0.113377646
119	0x3e4de220	0.20105791
120	0xbc5c633b	-0.013451393
121	0x3e610234	0.21973497
122	0xbd4825c7	-0.048864152
123	0xbe185104	-0.14874655
124	0x3e174270	0.14771438
125	0x3d9ab4b6	0.07553999
126	0x3db38c78	0.08767027
127	0x3d4d88a8	0.050179154
128	0x3e44d048	0.19220078
129	0xbdf0b6e6	-0.11753635
130	0xbdfaafea	-0.12240584
131	0x3e3d4ff3	0.1848753
132	0x3e7e868b	0.24856012
133	0xbdde4fd8	-0.10855073
134	0xbe82ca73	-0.25545081
135	0x3e31ec27	0.17375241
136	0x3dd8f1b2	0.10592975
137	0xbd8f8dc4	-0.070094615
138	0xbd249621	-0.040182237
139	0x3e23a35c	0.15980285
140	0xbd43c270	-0.047792852
141	0xbe229f58	-0.15881097
142	0xbdbb05c2	-0.091319576
143	0xbddebb7a	-0.10875602
144	0x3dc8ef02	0.09811212
145	0x3e41df18	0.1893276
146	0x3e901f66	0.28148955
147	0xbdb8ad75	-0.09017459
148	0xbe486461	-0.19569542
149	0x3e5354c1	0.206378
150	0xbe17abc6	-0.1481162
151	0xbd51158a	-0.051045932
152	0xbe1c71b4	-0.1527775
153	0x3d887c73	0.06664362
154	0xbe28c336	-0.16480717
155	0x3de1bfa3	0.1102288
156	0x3e54ddbd	0.20787711
157	0x3cbed2ff	0.02329397
158	0xbd9c8d26	-0.076441094
159	0x3cb69bab	0.022291025
160	0x3e21317d	0.15741535
161	0xbe2ca4c6	-0.16859731
162	0x3e5e6a7a	0.21720305
163	0xbdbf9470	-0.09354484
164	0xbd8a0bfc	-0.06740567
165	0xbddbc721	-0.1073134
166	0x3e38a8e4	0.18033177
167	0x3d4b3756	0.04961332
168	0xbe213925	-0.15744455
169	0xbd3f7e83	-0.04675151
170	0x3dd1f4f0	0.10251796
171	0xbe56078a	-0.20901313
172	0xbbbf2161	-0.0058328365
173	0x3e4be347	0.19910918
174	0x3da7fd7f	0.082026474
175	0x3dcad24d	0.09903393
176	0x3dbc0c78	0.09182066
177	0x3e391c4e	0.18077204
178	0x3cd414bb	0.025888791
179	0x3cacd314	0.021096744
180	0xbc20ca0c	-0.009813797
181	0xbd29ca97	-0.04145297
182	0x3dd57c47	0.10424095
183	0xbdf01b61	-0.11723972
184	0xbd65a19b	-0.056062322
185	0x3e3bebd1	0.18351676
186	0x3e8b2ab3	0.27181014
187	0x3c586aa8	0.013209023
188	0x3d98441d	0.074348666
189	0x3a8039c5	0.0009782842
190	0x3d874e9e	0.06606792
191	0x3df11eb3	0.117734335
192	0x3e8142c6	0.25246257
193	0x3dff8a61	0.124775656
194	0xbc30008d	-0.010742319
195	0x3c54fbf1	0.012999521
196	0xbafae187	-0.0019140699
197	0xbb0a4024	-0.002109536
198	0xbd03adec	-0.032148287
199	0x3e7a5258	0.24445474
200	0xbe46ddaa	-0.19420496
201	0xbcfe3b29	-0.03103407
202	0xbd5a5bac	-0.05331008
203	0xbdf74eb0	-0.12075555
204	0xbe20494e	-0.15652964
205	0xbb63714c	-0.0034704981
206	0x3e605b1c	0.21909755
207	0xbd7b416d	-0.06134169
208	0x3e72029c	0.23633808
209	0x3e80543c	0.25064266
210	0x3c09a5d4	0.008401353
211	0xbc2ac9cc	-0.010424089
212	0xbd472292	-0.048616953
213	0xbe63b84a	-0.2223827
214	0x3d2a3c26	0.04156127
215	0xbe35b0cc	-0.17743224
216	0x3dec9e52	0.11553635
217	0xbd0d0c2d	-0.03443544
218	0xbe76208e	-0.24035856
219	0x3e2e6eb7	0.17034422
220	0x3e80ef39	0.25182512
221	0x3e7c0d2b	0.24614398
222	0xbe013894	-0.12619239
223	0xbe176773	-0.14785556
224	0xbdf773de	-0.12082647
225	0x3d534e31	0.05158824
226	0x3e6b9f9a	0.23010102
227	0xbe15c4e5	-0.1462589
228	0xbe1d2ca5	-0.15349062
229	0x3d5a6ab2	0.05332441
230	0x3e22eaef	0.15909933
231	0xbd15ff4f	-0.036620434
232	0xbc2420de	-0.010017602
233	0xbe52e803	-0.20596318
234	0xbe63ebf6	-0.2225798
235	0xbe51fa3a	-0.2050561
236	0x3e15d418	0.14631689
237	0x3e41f7c6	0.18942174
238	0x3e600adf	0.21879147
239	0xbe93ac94	-0.28842604
240	0xbd3bd78a	-0.04585985
241	0xbe4d9d76	-0.20079598
242	0xbd86f357	-0.06589382
243	0x3e84b3e5	0.259185
244	0x3c63c8a9	0.013902822
245	0x3da58e23	0.08083751
246	0xbd48486d	-0.048897196
247	0x3e7177f3	0.23580913
248	0xbdeb713c	-0.11496207
249	0xbc81834b	-0.015809676
250	0x3e0613a7	0.13093434
251	0xbdbe9c1f	-0.093071215
252	0x3dbd54d8	0.09244698
253	0xbdc7e75e	-0.09760927
254	0xbd0e3011	-0.03471381
255	0xbd2e32c5	-0.042528886

model.model.model.0.bias f4 [256]
0	0x3e203758	0.15646112
1	0x3e49ff7a	0.19726363
2	0xbe278c8f	-0.16362213
3	0x3e11ccf8	0.14238346
4	0xbe2e8f8d	-0.17046948
5	0x3e2818c0	0.16415691
6	0x3e2c0442	0.16798499
7	0x3d6949b3	0.05695505
8	0x3e1b0a2f	0.15140603
9	0x3d99eb67	0.075156026
10	0xbdf56d57	-0.119837455
11	0xbc1722af	-0.009224578
12	0x3d2d572f	0.042319473
13	0x3bb86af6	0.005627985
14	0x3d585852	0.052818604
15	0x3db3b196	0.08774106
16	0x3d59d07b	0.053177338
17	0xbd3b06e1	-0.045660857
18	0x3e4867ea	0.1957089
19	0x3d42e514	0.047581747
20	0xbc4d086a	-0.012514213
21	0x3e257dc6	0.1616126
22	0x3dd0d51c	0.101968974
23	0xbcbe8296	-0.023255628
24	0x3dc9c13d	0.098513104
25	0xbe4cc06e	-0.19995281
26	0x3e172aff	0.14762495
27	0xbd39ec02	-0.04539109
28	0xbda782c9	-0.08179242
29	0xbe02e3e8	-0.12782252
30	0xbe49cc10	-0.1970675
31	0x3da39086	0.0798655
32	0x3daa6c12	0.08321394
33	0x3e1ecedf	0.15508603
34	0xbd220338	-0.03955385
35	0x3e4b1a4f	0.19834255
36	0x3e37b06b	0.17938392
37	0xbd9d1642	-0.07670261
38	0x3e20f1d1	0.15717246
39	0xbcff1c1f	-0.031141339
40	0xbb689531	-0.0035489316
41	0xbdb1a5d3	-0.086742066
42	0x3dfa8aed	0.12233529
43	0x3e2b3b20	0.16721773
44	0xbdeea923	-0.11653354
45	0xbdf30f5a	-0.118681625
46	0x3e0dad7d	0.13835712
47	0xbe1ebf74	-0.15502721
48	0x3d31a638	0.04337141
49	0x3deea554	0.116526276
50	0xbcfd8153	-0.030945456
51	0xbe4e45e7	-0.20143853
52	0xbd2f0e15	-0.04273804
53	0xbdefffb6	-0.11718695
54	0xbe10cfd1	-0.14141776
55	0x3e5256ae	0.20540878
56	0xbe235b7c	-0.15952867
57	0x3e6e0ad3	0.23246317
58	0x3da45aa6	0.08025102
59	0x3e29649d	0.16542287
60	0x3ca179b0	0.019711345
61	0xbd72326d	-0.05913012
62	0x3e807439	0.2508867
63	0xbd17d942	-0.037072428
64	0x3ce36f65	0.027763078
65	0x3e44de71	0.1922548
66	0x3d8763e1	0.06610847
67	0xbd52bdcd	-0.05145054
68	0xbe1dee11	-0.15422846
69	0x3dd212c8	0.102574885
70	0x3e21e271	0.15809037
71	0xbe10a38d	-0.1412489
72	0xbcd5a48d	-0.02607944
73	0xbde00e53	-0.10940232
74	0xbe11fd0e	-0.14256689
75	0xbc8c97db	-0.017162254
76	0x3db99038	0.09060711
77	0xbe59b359	-0.21259822
78	0x3e3c9069	0.18414463
79	0x3cb54894	0.022129335
80	0x3cb859b7	0.022503717
81	0x3c58beda	0.013229096
82	0x3e30bb72	0.17259005
83	0xbba2d743	-0.004969509
84	0xbe0307e5	-0.1279598
85	0xbd597351	-0.05308849
86	0xbdeaaca5	-0.114587106
87	0xbcfb3834	-0.030666448
88	0xbe0fe66c	-0.14052743
89	0x3db4c643	0.08826878
90	0x3d336385	0.04379608
91	0x3e662155	0.22473653
92	0x3bd5b1c0	0.0065214336
93	0x3e60db88	0.21958745
94	0xbe26d74c	-0.16293067
95	0x3e14a512	0.14516094
96	0x3e126b97	0.14298855
97	0xbc22c3e6	-0.009934401
98	0xbe1c1414	-0.15242034
99	0x3ccddaf1	0.025128813
100	0xbd44ce7d	-0.048048485
101	0x3d2e15f9	0.042501424
102	0x3d23180d	0.03981786
103	0x3e811299	0.252095
104	0xbc30aa27	-0.010782755
105	0x3dc7c1b3	0.09753742
106	0x3e6e37dd	0.23263498
107	0x3b789aeb	0.0037934135
108	0x3d2e04b6	0.04248496
109	0x3e6eebd5	0.2333215
110	0xbe21f291	-0.15815188
111	0x3e5efebd	0.21776862
112	0xbd8144c6	-0.063119456
113	0xbdfc25f5	-0.12311927
114	0x3e0b292a	0.13589922
115	0x3deafd30	0.11474073
116	0x3e521183	0.20514493
117	0xbda52f9d	-0.08065722
118	0xbe178f1d	-0.14800687
119	0xbe0f3ee6	-0.13988838
120	0xbcc3987c	-0.023876421
121	0xbe66ba03	-0.22531895
122	0x3c9d023e	0.019166108
123	0x3df8adfe	0.121425614
124	0x3d133c9e	0.03594648
125	0x3da82c2f	0.08211552
126	0x3e1e40f3	0.15454464
127	0xb9a53373	-0.00031509585
128	0x3e354dc0	0.1770544
129	0x3dd09357	0.10184353
130	0x3e74882c	0.2388007
131	0x3d8e8dd3	0.069606446
132	0xbe49efca	-0.19720379
133	0xbdf8cf7d	-0.1214895
134	0xbcb89695	-0.02253274
135	0x3de40a83	0.111348175
136	0xbc0fc438	-0.00877481
137	0x3e409096	0.18805155
138	0xbcffae89	-0.031211155
139	0x3d1091e6	0.03529539
140	0xbddb23af	-0.107001655
141	0x3c9e1bdc	0.019300394
142	0x3d5299ae	0.05141609
143	0xbe08c3b8	-0.13355911
144	0xbe1485d4	-0.14504176
145	0x3dde1739	0.10844273
146	0xbddbc417	-0.107307605
147	0x3e715ca6	0.23570499
148	0x3dbaa32f	0.09113156
149	0x3e428e22	0.18999532
150	0x3d434138	0.04766962
151	0x3d42124a	0.047380723
152	0xbd5076b8	-0.05089447
153	0x3e3ed1f2	0.18634775
154	0xbcd6cab2	-0.0262197
155	0xbdd178bc	-0.102281064
156	0xbe4b2b74	-0.19840795
157	0x3e355227	0.1770712
158	0xbe24c761	-0.16091682
159	0x3e20e466	0.15712127
160	0x3cb7ef8d	0.022453094
161	0xbd6cd3b5	-0.057819087
162	0x3d78b2cf	0.0607174
163	0xbdf08bee	-0.117454395
164	0x3e475024	0.19464165
165	0xbe13d5d5	-0.14437039
166	0x3cd20f51	0.025642069
167	0xbe21be20	-0.15795183
168	0xbdce413e	-0.10071038
169	0xbe072fca	-0.13201824
170	0xbe5a2c9e	-0.21306083
171	0x3e6028bb	0.21890537
172	0xbdb9bc06	-0.09069066
173	0x3e76c015	0.24096711
174	0x3e802184	0.2502557
175	0x3c168670	0.009187326
176	0x3e677328	0.22602522
177	0x3dc5865e	0.09644769
178	0x3d59ff8f	0.053222235
179	0x3e61d887	0.22055255
180	0x3e32c2f5	0.17457183
181	0x3def6731	0.11689604
182	0x3e3f9646	0.18709669
183	0xbda9dce8	-0.08294088
184	0x3deac2f0	0.114629626
185	0x3e185cd2	0.14879158
186	0x3e6fb2e8	0.23408091
187	0x3d2db87b	0.042412262
188	0xbc33e8e4	-0.010980818
189	0x3e358b50	0.17728925
190	0x3e6d8b29	0.23197617
191	0xbd86c245	-0.06580023
192	0x3e1f664d	0.15566368
193	0x3e4ce294	0.20008308
194	0xbde2f769	-0.11082346
195	0x3e86b498	0.26309657
196	0x3e4a26bd	0.1974134
197	0xbe2c1dc8	-0.16808236
198	0x3e47d9f4	0.19516736
199	0xbdda5e47	-0.10662513
200	0xbdb6c623	-0.0892451
201	0x3e430863	0.19046168
202	0x3e2bd647	0.16780959
203	0xbe30d1d8	-0.17267549
204	0xbdb6cc8a	-0.089257315
205	0xbdb38189	-0.08764941
206	0xbbc29d15	-0.005939136
207	0xbd4e5e30	-0.050382793
208	0x3e6167f3	0.2201231
209	0x3e2fdae6	0.17173347
210	0xbdcd9fd5	-0.10040251
211	0xbdaeee8c	-0.08541593
212	0x3e3cf6fd	0.18453594
213	0xbdfc50bc	-0.12320086
214	0x3d8efa5e	0.069813475
215	0x3ded16de	0.11576627
216	0xbcd0a8b0	-0.025471061
217	0x3e3e0916	0.18558154
218	0x3cd2f0e8	0.025749639
219	0x3e3c2deb	0.18376891
220	0x3e5047d8	0.20339906
221	0x3e169cb5	0.14708216
222	0x3ca375e5	0.019953677
223	0xbe3c6cd3	-0.18400888
224	0xbd9e84ad	-0.0774015
225	0x3cc3ca06	0.023900043
226	0x3e83e3d6	0.25759763
227	0x3e4f0a0e	0.2021868
228	0x3d1c9699	0.03822956
229	0xbd7078a0	-0.058708787
230	0x3e000aaf	0.12504075
231	0xbe02b581	-0.12764551
232	0x3e55f890	0.208956
233	0x3e3f5ec0	0.18688488
234	0xbe0319b4	-0.12802774
235	0xbe592e6f	-0.2120912
236	0xbb441ff4	-0.0029926272
237	0xbe1b744c	-0.15181082
238	0xbda5fc18	-0.08104724
239	0x3d85d6bc	0.06535098
240	0x3c5b111c	0.013370778
241	0x3e1f1b75	0.15537818
242	0x3e6c9728	0.23104537
243	0xbd22ee05	-0.039777774
244	0x3d972e14	0.073818356
245	0xbe0b5f72	-0.13610628
246	0xbdaf960e	-0.085735425
247	0xbe1bbe4f	-0.15209316
248	0x3df92459	0.12165136
249	0x3e84ee46	0.25963038
250	0xbe399c93	-0.18126135
251	0x3e88e558	0.26737475
252	0x3dd51b48	0.10405594
253	0x3ac0c5a2	0.0014707337
254	0xbe2dcd02	-0.16972736
255	0x3e73a68a	0.23793998

model.model.model.2.weight f4 [128, 256]
0	0xbc001a28	-0.007818736
1	0x3d74cbcf	0.05976468
2	0x3d889d38	0.06670612
3	0x3d3692af	0.044573482
4	0xbd25f83f	-0.04051995
5	0x3d132493	0.03592355
6	0xbb581360	-0.0032970533
7	0x3da5291a	0.0806448
8	0x3d7386b9	0.059454653
9	0xbd055688	-0.032553226
10	0xbd388e24	-0.04505743
11	0x3aea9f04	0.0017900174
12	0xbd306f68	-0.043074995
13	0xbcab76ba	-0.020930637
14	0xbc31cae9	-0.0108516
15	0xbd168275	-0.036745507
16	0xbc8bde2c	-0.017073713
17	0xbd291c83	-0.041286957
18	0xbc068dab	-0.008212487
19	0x3aef7faa	0.00182723
20	0x3cc59d01	0.024122717
21	0xbba34446	-0.004982504
22	0x3cede88a	0.029041547
23	0x3d6e1101	0.058121685
24	0xbcc083b5	-0.023500303
25	0x3d6aa46a	0.057285704
26	0x3d04b5f2	0.03240008
27	0x3cddd08d	0.027076984
28	0xbc6be9d1	-0.014399008
29	0xbc87976e	-0.0165517
30	0xbccd410a	-0.025055427
31	0x3d6873cc	0.056751058
32	0xbd4e1745	-0.05031516
33	0xbcb35ad3	-0.021893894
34	0x3c58ced3	0.0132329045
35	0x3cc51219	0.024056481
36	0xbd5012c9	-0.050799165
37	0x3d913544	0.07090238
38	0x3d39f843	0.045402776
39	0x3c42cb0f	0.011889233
40	0xbdc15359	-0.094397254
41	0xbd475641	-0.048666243
42	0x3b4a0b02	0.0030829315
43	0xbd68d463	-0.056843173
44	0xbcac1e6d	-0.021010602
45	0x3d016216	0.031587683
46	0x3d2a6251	0.041597668
47	0xbd28ee26	-0.04124274
48	0xbd3e1d15	-0.046414454
49	0x3d50193c	0.050805315
50	0x3ca6b26d	0.020348752
51	0xbc3545dd	-0.01106402
52	0xbc937529	-0.018000202
53	0xbd706546	-0.058690332
54	0x3d8baf06	0.068204924
55	0x3d4fe89a	0.050758936
56	0xbbd1d663	-0.0064037307
57	0xbcca3b55	-0.024686495
58	0xbdb4242b	-0.08795961
59	0xbba71f6c	-0.0051001813
60	0xbc6b2d2d	-0.014354032
61	0x3d441804	0.047874466
62	0x3ca4e206	0.020127308
63	0xbc73a0e1	-0.0148698995
64	0xbd2e8d52	-0.042615242
65	0x3d9139db	0.07091113
66	0x3d37aa0b	0.0448399
67	0xbd029ef1	-0.03188986
68	0xba1498a4	-0.0005668497
69	0xbd35434b	-0.04425363
70	0x3d0a6eca	0.033797063
71	0x3d4a043a	0.049320437
72	0x3cb9835d	0.022645647
73	0xbd51b4a5	-0.051197667
74	0xbc147e77	-0.009063355
75	0x3c0a6f6c	0.008449417
76	0xbd0ebb4a	-0.03484658
77	0xbc18b891	-0.009321348
78	0x3cb67bf6	0.022275906
79	0xbdb590ac	-0.088654846
80	0x3d9d11f6	0.076694414
81	0xbd307f5a	-0.043090202
82	0xbd6580a3	-0.05603088
83	0xbd8acf6a	-0.06777842
84	0xbb4530d2	-0.0030088914
85	0x3a7ec297	0.0009718327
86	0xbc501792	-0.012700932
87	0xbd53bfba	-0.051696517
88	0xbcc7c704	-0.02438689
89	0xbc2148b6	-0.009843996
90	0x3d979c76	0.074028894
91	0x3d4b8064	0.04968299
92	0xbc9b049d	-0.018923098
93	0xbbfd93fa	-0.0077385874
94	0xbd6a2580	-0.05716467
95	0x3b805366	0.003916192
96	0xbd5432f1	-0.051806394
97	0x3bca815a	0.0061799707
98	0x3b640c86	0.0034797504
99	0xbc42d562	-0.011891695
100	0xbd875348	-0.066076815
101	0xb99f4b5f	-0.00030383
102	0x3d35e611	0.04440886
103	0x3db2f2a1	0.08737684
104	0x3d4aa5f7	0.049474683
105	0xbd176d28	-0.036969334
106	0xbc6a79f9	-0.014311307
107	0x3e44f304	0.19233328
108	0x3cfcf779	0.030879723
109	0x3aa932f9	0.0012908868
110	0x3d32a308	0.04361251
111	0x3d1b33cb	0.03789119
112	0xbb27be65	-0.0025595662
113	0x3c9caa02	0.019124035
114	0xbcf50b1e	-0.029912528
115	0x3db77162	0.08957173
116	0xbd00c59c	-0.031438455
117	0xbd5f4da4	-0.054517403
118	0xbd7802a7	-0.060549404
119	0xbda55ccd	-0.08074341
120	0x3c2dfc0f	0.0106191775
121	0x3ccf3588	0.02529408
122	0x3d992ce9	0.07479269
123	0x3d95b3db	0.07309695
124	0x3d8239e0	0.06358695
125	0x3d544aec	0.051829264
126	0xbcc75422	-0.02433211
127	0x3ce2accc	0.027670287
128	0x3ceeb773	0.02914021
129	0x3cd40428	0.025880888
130	0xbcebe0a5	-0.028793642
131	0x3d093667	0.033499148
132	0x3dc98ef0	0.09841716
133	0xbcf46f8c	-0.029838346
134	0x3dddf7a7	0.108382516
135	0xbd86bd38	-0.06579059
136	0x3d79eed9	0.0610188
137	0xbc123def	-0.008925899
138	0xbc80f5fa	-0.01574229
139	0xbd9b3b80	-0.07579708
140	0xbdb6f739	-0.08933873
141	0xbc4eebce	-0.012629462
142	0x3d1f59f8	0.03890416
143	0xbc6ba80c	-0.014383327
144	0xbce95855	-0.028484503
145	0xbd293fb5	-0.04132052
146	0x3ce325af	0.02772793
147	0xbd2ed5eb	-0.042684477
148	0x3c2acce6	0.010424828
149	0x3de75747	0.11295944
150	0xbd6484b6	-0.055790626
151	0xbd98a0cd	-0.07452545
152	0x3d01fddb	0.031736236
153	0x3a3f5ee0	0.0007300209
154	0x3d411bd3	0.047145676
155	0x3ba0157a	0.0048853727
156	0x3c9296d9	0.017894195
157	0xbd8944f1	-0.06702603
158	0x3d01bc4e	0.031673722
159	0x3cb72927	0.02235849
160	0xbc1b9842	-0.00949675
161	0xbc932602	-0.01796246
162	0x3d44383b	0.047905188
163	0xbd84a65a	-0.064770415
164	0x3cdee5b1	0.027209135
165	0x3d4e1dfe	0.05032157
166	0x3cc19bd1	0.02363387
167	0xbd4aa71e	-0.04947578
168	0x3ce8b214	0.028405227
169	0x3d137fed	0.03601067
170	0xbcfd19e4	-0.030896135
171	0x3d234d92	0.0398689
172	0xbc0fd91d	-0.008779791
173	0x3deb607b	0.114930116
174	0x3bae1337	0.005312349
175	0x3c62d4f6	0.013844719
176	0x3d89c421	0.06726862
177	0x3d0075dd	0.031362403
178	0xbcffb940	-0.031216264
179	0xbbc0b702	-0.005881191
180	0xbd1d8016	-0.03845223
181	0xbd24f421	-0.040271882
182	0x3d4ded2b	0.05027501
183	0xbca8d97e	-0.02061152
184	0x3d9f96ef	0.0779246
185	0xbb8c8b19	-0.0042890427
186	0x3cd1c0ed	0.02560469
187	0x3d5f7d83	0.054563057
188	0xbd5b154e	-0.053487115
189	0x3c7d36dd	0.015454975
190	0xb9f38f2f	-0.00046455252
191	0xbd431921	-0.047631387
192	0xbbe3709a	-0.0069409134
193	0xbcb87612	-0.022517238
194	0xbd9b1859	-0.07573003
195	0xbd04f815	-0.032463152
196	0x3dbd9240	0.092564106
197	0xbd49e9fe	-0.049295418
198	0x3d199f52	0.037505455
199	0xbda5cd65	-0.080958165
200	0x3d51f618	0.051260084
201	0xbccb7e43	-0.02484048
202	0x3968a422	0.00022186388
203	0xbbf29c89	-0.0074039144
204	0x3dcdd652	0.10050644
205	0xbca94cfb	-0.02066659
206	0xbd1b9207	-0.03798106
207	0xbc852168	-0.01625128
208	0x3d5340ec	0.051575586
209	0x3cd2152e	0.025644865
210	0x3d2de880	0.042458057
211	0x3c3a2022	0.0113602
212	0x3d4460db	0.04794393
213	0x3cb61947	0.02222885
214	0x3cc428a9	0.02394517
215	0x3d1a9bea	0.037746347
216	0xbb80368e	-0.0039127534
217	0x3d8fcd32	0.0702156
218	0x3dec3f9e	0.115355715
219	0xbb0e65f1	-0.0021728242
220	0x3cfe571f	0.031047402
221	0xbd494b42	-0.049144037
222	0x3d0d9adb	0.03457151
223	0x3d4fbbc9	0.050716195
224	0xbdf231c6	-0.118259
225	0x3cd6315a	0.02614658
226	0x3c02819e	0.007965473
227	0xbcc3ce1f	-0.023901997
228	0x3cc05c51	0.02348152
229	0xbd0a5b76	-0.03377863
230	0xbd178fcf	-0.03700238
231	0xbce9a875	-0.02852271
232	0xbd95561d	-0.072918154
233	0x3dcdc9e8	0.10048276
234	0x3dd08019	0.10180683
235	0xbd41891f	-0.04724991
236	0x3d6836a7	0.056692746
237	0xbd9a4a36	-0.07533686
238	0xbd56be6f	-0.052427705
239	0xbd1a4bc9	-0.03766993
240	0x3aeafe10	0.00179285
241	0xbba45bae	-0.005015812
242	0x3c1353ae	0.008992119
243	0xbcd9921f	-0.026558934
244	0xbd2e941d	-0.04262172
245	0xbd77b239	-0.0604727
246	0xbd1451e9	-0.036210928
247	0xbcdae025	-0.026718209
248	0x3cd4f142	0.025993947
249	0x3db1bdf6	0.0867881
250	0xbd2fe9a1	-0.042947415
251	0x3c816b1d	0.015798146
252	0x3c9289e3	0.017888015
253	0x3d47abe5	0.048747916
254	0xbd9702ae	-0.07373558
255	0x3da5d4bd	0.08097217

model.model.model.2.bias f4 [128]
0	0x3d8ed46c	0.0697411
1	0xbc4a03e1	-0.012330026
2	0x3c25ac04	0.0101118125
3	0x3d1151f0	0.035478532
4	0xbc815a1c	-0.015790038
5	0x3c0c2ede	0.008556096
6	0x3d915122	0.07095553
7	0x3d9109dc	0.07081959
8	0x3d80d1b4	0.06289998
9	0x3d583099	0.05278072
10	0x3c7e82b8	0.0155340955
11	0x3ba613d4	0.0050682817
12	0xbd76ffd4	-0.06030257
13	0x3d66b480	0.056324482
14	0x3d36a4c9	0.044590745
15	0x3d4bdc5c	0.049770698
16	0x3d9f6bf2	0.07784261
17	0x3c9a6acb	0.018849751
18	0x3b68799b	0.0035472873
19	0x3d1d5702	0.038413055
20	0x3cb7c7ec	0.022434197
21	0x3c233032	0.009960221
22	0xbd1806d7	-0.037115898
23	0xbd568e94	-0.052382067
24	0x3d5c3c3e	0.05376839
25	0x3d11701d	0.03550731
26	0x3d25b8b1	0.04045934
27	0xbd38bdd9	-0.045102928
28	0x3d90efd4	0.070769936
29	0xbbb8cf47	-0.0056399438
30	0xbd442a63	-0.047891986
31	0xbd002205	-0.031282444
32	0x3d6109a8	0.05494085
33	0xbb1cadf7	-0.0023907402
34	0xbc897aad	-0.01678213
35	0xbbc17627	-0.0059039774
36	0xbd45b508	-0.048268348
37	0xbd180672	-0.03711552
38	0x3d2ca818	0.042152494
39	0xbd09587e	-0.03353166
40	0xbd0a75b2	-0.03380365
41	0xbbd30dcb	-0.0064408532
42	0x3c550963	0.013002726
43	0xbd28f748	-0.04125145
44	0x3d2b68f5	0.04184814
45	0x3ca254c5	0.019815812
46	0x3d6115a9	0.054952297
47	0x3db5e745	0.08882002
48	0x3c901a7e	0.017590757
49	0x3cc49abe	0.023999568
50	0x3d1c00fe	0.038086884
51	0x3d536ce6	0.051617526
52	0x3d390882	0.04517413
53	0x3d8cec3d	0.068809964
54	0xbd7a6890	-0.061134875
55	0x3cc0a938	0.02351819
56	0xbd79711c	-0.060898885
57	0xbc2807b8	-0.010255747
58	0x3c88de03	0.016707426
59	0xbd30ac57	-0.043133106
60	0x3d0fa31a	0.035067655
61	0x3cd0a385	0.025468597
62	0xbcbae306	-0.022813331
63	0xba3ea382	-0.00072722894
64	0x3c9e99dc	0.019360475
65	0xbc46ce36	-0.012134125
66	0x3d7a7f21	0.061156396
67	0x3d208680	0.03919077
68	0x3d3cf5de	0.046132915
69	0x3d21e4af	0.03952473
70	0x3d66e25d	0.05636822
71	0x3a9dc22a	0.0012036015
72	0xbcc1e12a	-0.023666937
73	0xbd07ee0f	-0.033186015
74	0xbcf2b169	-0.029625611
75	0x3c7530d4	0.014965255
76	0x3d166a5b	0.036722522
77	0xbd1b58d0	-0.037926495
78	0x3c66975b	0.014074172
79	0xbd53f3b9	-0.051746104
80	0x3b513c96	0.0031926981
81	0xbaba02b1	-0.0014191476
82	0x3ca7ff35	0.020507434
83	0xbd20c0d3	-0.03924639
84	0x3cee498a	0.0290878
85	0xbd150bae	-0.03638809
86	0x3d444e92	0.047926493
87	0x3c6fb06f	0.014629467
88	0x3ce714d6	0.028208178
89	0x3d7525ec	0.05985062
90	0xbcc9203e	-0.024551507
91	0xbd2d963a	-0.042379595
92	0x3db07d7a	0.08617683
93	0xbb925c08	-0.0044665374
94	0xbcc2332a	-0.023706038
95	0x3d418f7a	0.04725597
96	0xbd547852	-0.05187256
97	0xbd3275b3	-0.043569278
98	0x3bd6640b	0.006542688
99	0x3d3d038b	0.046145957
100	0x3db361d9	0.08758897
101	0xbbb67238	-0.005567815
102	0xbd61ebcd	-0.055156518
103	0x3d47cbd0	0.048778355
104	0x3d3224db	0.04349218
105	0x3c20da3d	0.009817657
106	0x3ca466c4	0.020068534
107	0x3c9384e1	0.018007698
108	0xbc832cb3	-0.016012525
109	0x3d832336	0.064032
110	0xbd5693da	-0.052387096
111	0xbc5d3e16	-0.013503572
112	0x3c0c79b2	0.008573936
113	0xbc1ec44b	-0.009690355
114	0xbbb0acb4	-0.0053916816
115	0xbcbc9485	-0.023020038
116	0xbcf62995	-0.030049125
117	0x3d90d9a9	0.070727654
118	0xbbc8937f	-0.0061210985
119	0x3d1ec492	0.038761683
120	0x3d8bae7a	0.06820388
121	0xbd171322	-0.03688348
122	0xbd014ae6	-0.03156557
123	0x3c72b029	0.014812508
124	0xbd71a50a	-0.058995284
125	0x3cca1a31	0.024670692
126	0xbd35f53e	-0.044423334
127	0x3daafb47	0.083487086

model.model.model.4.weight f4 [64, 128]
0	0xba61f676	-0.00086197944
1	0xbdd31c49	-0.10308129
2	0x3c060dba	0.008181984
3	0xbdce700c	-0.10079965
4	0xbd80853c	-0.062754124
5	0xbc5b6b97	-0.013392351
6	0xbc854427	-0.01626785
7	0xbdaa6f12	-0.08321966
8	0x3c23e70f	0.010003819
9	0x3d79c25c	0.06097637
10	0x3c894e2a	0.016760904
11	0x3d470541	0.048588995
12	0xbd142ab0	-0.036173522
13	0x3da2ec6e	0.07955252
14	0x3cced545	0.02524818
15	0xbd1ad912	-0.03780467
16	0x3d209c44	0.039211527
17	0x3c9001c6	0.01757897
18	0xbd6a6709	-0.05722717
19	0xbdb39856	-0.0876929
20	0x3c03f933	0.008055019
21	0xbd0877ce	-0.03331738
22	0x3d63bf27	0.05560222
23	0x3c74e458	0.0149470195
24	0xbddc8e21	-0.107692964
25	0xbde17488	-0.11008555
26	0xbdb3f8d7	-0.08787697
27	0x3d058364	0.032596007
28	0xbc2ffa65	-0.010740851
29	0x3cc14d01	0.023596289
30	0xbbe48dd7	-0.0069749164
31	0xbd94d8cf	-0.072679155
32	0xbd1e58c1	-0.03865886
33	0x39984707	0.0002904462
34	0x3da8d8cb	0.08244475
35	0xbd8db8c4	-0.06920007
36	0x3d5b8eea	0.05360309
37	0xbd80b129	-0.062837906
38	0xbc295aca	-0.010336587
39	0x3d2342af	0.039858516
40	0x3cf90410	0.030397445
41	0xbd91cd5b	-0.071192466
42	0x3d9cd042	0.076569095
43	0xbd13db8b	-0.036098044
44	0xbd716b0c	-0.05893998
45	0xbb5f28ea	-0.0034051486
46	0x3c4a50b3	0.012348342
47	0x3bedff52	0.0072631026
48	0x3c26be52	0.010177212
49	0x3c9e31fd	0.019310946
50	0x3d8741ee	0.06604372
51	0x3d52b1f2	0.051439233
52	0x3d3e5d73	0.04647584
53	0xbd355436	-0.044269763
54	0xbbc4b561	-0.0060030674
55	0x3c0d0608	0.008607395
56	0xbd1d8174	-0.038453534
57	0x3ce4e24b	0.027939936
58	0x3dd1f6d6	0.10252158
59	0x3d3b17b9	0.04567692
60	0x3d67b722	0.056571133
61	0x3d6dd457	0.05806383
62	0xbbfc466b	-0.007698824
63	0xbdd2f36e	-0.10300337
64	0xbbf331e1	-0.0074217175
65	0x3d512b67	0.051066782
66	0xbd9556a6	-0.072919175
67	0x3d815060	0.063141584
68	0xbd8ca186	-0.06866746
69	0xbd8a25e6	-0.0674551
70	0xbce50f3e	-0.02796137
71	0xbc3ec2d2	-0.0116431285
72	0x3da31a85	0.079640426
73	0xbdb3d13a	-0.08780141
74	0x3c19e2fb	0.009392495
75	0x3d28c465	0.04120292
76	0xbca138d8	-0.019680426
77	0xbd08068b	-0.033209365
78	0xbd312c75	-0.04325529
79	0xbd7e91bd	-0.062150706
80	0xbd038140	-0.032105684
81	0x3d1484d9	0.036259506
82	0xbd8cd42b	-0.06876405
83	0xbd443532	-0.047902294
84	0xbd35f349	-0.044421468
85	0xbcb14234	-0.021638013
86	0x3cdfdc8c	0.027326845
87	0x3d65d937	0.056115355
88	0x3cc9c9a2	0.024632279
89	0x3d9154ce	0.07096253
90	0xbbd5dfc5	-0.0065269195
91	0xbd8ab0ab	-0.06771978
92	0x3d4d710d	0.05015664
93	0xbd6a5b26	-0.057215832
94	0xbcb9aaec	-0.02266451
95	0xbd09e9f8	-0.033670396
96	0x3c883b92	0.016629968
97	0xbd37f9e5	-0.044916052
98	0xbd2a92be	-0.04164385
99	0x3db85156	0.089998886
100	0x3cd28522	0.025698248
101	0x3b8369b1	0.004010402
102	0x3d2bb86e	0.041923933
103	0xbdcc8369	-0.09986002
104	0xbd018225	-0.031618256
105	0x3d981428	0.074257195
106	0x3d95b758	0.07310361
107	0xbd62d91e	-0.05538284
108	0xbd93e9da	-0.07222338
109	0xbdc62f9f	-0.09677052
110	0x3d0333e2	0.0320319
111	0x3cf9ab08	0.030477062
112	0x3ca9d015	0.020729104
113	0x3ac862ac	0.0015288196
114	0xbd842237	-0.064518385
115	0x3bbfaff8	0.0058498345
116	0xbcddb3bf	-0.027063249
117	0xbd3a3580	-0.045461178
118	0x3ca8c123	0.020599907
119	0x3d3306dc	0.043707713
120	0x3dbd6ddc	0.0924947
121	0x3d911a3a	0.070850804
122	0xbd36c43e	-0.044620745
123	0x3bd6cefc	0.006555436
124	0xbd0a3fd5	-0.03375228
125	0x3d0996e3	0.033591162
126	0xbcf0bf69	-0.029388146
127	0xbdaaa3d7	-0.08332031
128	0x3dd1a96c	0.10237393
129	0xbd9b4ca8	-0.075829804
130	0xbdb673fb	-0.0890884
131	0xbdd2f036	-0.10299723
132	0xbd6f82b9	-0.058474276
133	0x3da6ab0d	0.08138094
134	0x3c21a4b0	0.009865925
135	0x3cb13eaa	0.021636326
136	0xbc83143d	-0.016000861
137	0xbd5d35f8	-0.054006547
138	0xbd8960cd	-0.067079164
139	0x3dd6af3c	0.10482642
140	0x3d836a96	0.06416814
141	0x3dc9dbac	0.09856352
142	0x3d8154f5	0.063150324
143	0x3cd25c8e	0.0256789
144	0x3c837fd9	0.016052173
145	0x3dace52d	0.08442149
146	0x3da79e75	0.0818452
147	0x3d605113	0.05476482
148	0xbb3ba418	-0.0028631743
149	0xbd7bc9b0	-0.06147164
150	0x3ba11cd2	0.0049167657
151	0xbd70596a	-0.058679022
152	0xbddb46d6	-0.1070687
153	0xbda714b9	-0.081582494
154	0x3e224448	0.1584636
155	0x3d78521e	0.060625188
156	0x3d8f093a	0.06984182
157	0xbdae81c8	-0.085208476
158	0x3cf83059	0.030296491
159	0xbd42c3bd	-0.04754995
160	0x3d3193c2	0.043353803
161	0xbc96c08b	-0.018402359
162	0xbc8df3c4	-0.01732815
163	0xbdc10c3d	-0.094261624
164	0xbd119cd9	-0.035549972
165	0xbd1a5e61	-0.037687663
166	0x3d8f5449	0.06998498
167	0xbb8babac	-0.0042624082
168	0x3dab8279	0.08374495
169	0xbdaffaa2	-0.08592726
170	0xbcdd0a86	-0.026982557
171	0xbd72f21f	-0.059312936
172	0xbd218394	-0.039432123
173	0x3de5ae2e	0.11214863
174	0x3d246929	0.04013935
175	0xbd24035e	-0.040042274
176	0x3d09995b	0.033593517
177	0xbd4cb76a	-0.049979605
178	0xbd9a8ee9	-0.07546789
179	0xbd919898	-0.07109183
180	0x3d992790	0.07478249
181	0x3d3db99e	0.046319596
182	0xbd7120ef	-0.0588693
183	0x3d43c92a	0.047799267
184	0x3da2801b	0.079345904
185	0xbc0295fb	-0.007970328
186	0xbd253775	-0.04033609
187	0x3dd3f6d7	0.10349815
188	0x3d5de60b	0.054174464
189	0xbd3a2b5b	-0.045451503
190	0xbddd813a	-0.10815664
191	0x3d1ba9aa	0.0380036
192	0xbd295df8	-0.04134938
193	0x3d98752b	0.07444223
194	0x3d98a912	0.074541226
195	0xbd8989b9	-0.06715722
196	0xbcd278a8	-0.025692299
197	0x3dbd51fd	0.09244154
198	0xbd7404f5	-0.05957504
199	0x3cc316ab	0.02381452
200	0x3dabb26e	0.08383642
201	0xbc2f2c03	-0.010691646
202	0x3cfc8153	0.030823385
203	0xbdea6a5c	-0.11446068
204	0xbd75605a	-0.05990634
205	0x3c99ea0d	0.018788362
206	0xbd2eda21	-0.042688493
207	0x3a56b712	0.0008190732
208	0x3c83c1ae	0.016083565
209	0x3d1f981b	0.03896342
210	0xbd576792	-0.052589007
211	0x3cc500fa	0.024048317
212	0x3da479e4	0.08031061
213	0x3c5d26dc	0.013498034
214	0xbdcf6d9f	-0.101283304
215	0xbd448809	-0.047981296
216	0x3d66bf23	0.056334626
217	0xbe0bf4ab	-0.13667552
218	0x3bbbc1e9	0.005729903
219	0x3d711756	0.058860146
220	0xbc730ac9	-0.014834114
221	0xbdfacc30	-0.12245977
222	0x3dcc9b25	0.09990529
223	0x3d9a44c3	0.075326465
224	0xbda5eeb1	-0.081021674
225	0xbd78a317	-0.06070241
226	0xbbc40c63	-0.005982922
227	0x3dd5556a	0.10416682
228	0x3dd9aabd	0.10628269
229	0xbd54ae55	-0.05192407
230	0x3d54bd70	0.051938474
231	0x3d8d7c9f	0.06908535
232	0xbb79f832	-0.003814232
233	0xbce9607f	-0.028488396
234	0xbc1c7bf2	-0.009551035
235	0xbcfccb11	-0.030858548
236	0x3d2c1901	0.042016033
237	0xbd5222f4	-0.051302865
238	0xbdc47777	-0.095930986
239	0x3df72f12	0.12069525
240	0xbd359d83	-0.044339668
241	0xbd86387c	-0.06553742
242	0x3bebd01d	0.00719644
243	0x3d67754c	0.056508347
244	0x3c6bf5a4	0.014401827
245	0x3d5293ab	0.05141036
246	0x3dc1f81b	0.094711505
247	0x3d56e309	0.05246261
248	0x3d0c2156	0.03421148
249	0x3d52d04e	0.051468186
250	0xbd0dfa3e	-0.034662478
251	0x3ddbe270	0.10736549
252	0x3d27d84c	0.04097776
253	0x3d2864ad	0.041111637
254	0x3c352f59	0.011058652
255	0x3c15b31c	0.009136941

model.model.model.4.bias f4 [64]
0	0x3c863f0c	0.016387485
1	0x3d8039b3	0.06261005
2	0xbd6a2725	-0.057166237
3	0xbcb727c6	-0.022357833
4	0x3dcd6194	0.10028377
5	0xbdb2c509	-0.08728988
6	0x3d921af6	0.07134049
7	0x3d940733	0.07227936
8	0xbce690ff	-0.028145311
9	0x3db098d2	0.08622898
10	0x3caffd2e	0.02148303
11	0x3ce68432	0.028139208
12	0xbda89222	-0.082309976
13	0xbd8d35ee	-0.06895052
14	0xb9f6fa87	-0.00047107434
15	0xbb1f29b8	-0.002428634
16	0xbcd2234a	-0.025651593
17	0xbd8fbf52	-0.07018913
18	0x3d9d671f	0.076856844
19	0x3d06ad1a	0.032879926
20	0x3d7181cd	0.05896168
21	0x3d729ac0	0.059229612
22	0xbd7d71da	-0.061876155
23	0xbcabc1e9	-0.020966487
24	0x3da60c5a	0.081078246
25	0x3d165f77	0.036712136
26	0xb9d10d23	-0.00039873374
27	0xbd271c85	-0.040798683
28	0x3c4858cd	0.012228203
29	0x3db1f4ca	0.08689268
30	0xbcfbfa87	-0.03075911
31	0x3d334402	0.04376603
32	0xbd69383d	-0.0569384
33	0xbd5e7cae	-0.054318123
34	0x3cc98f18	0.024604365
35	0x3d35138e	0.044208102
36	0xbda96d41	-0.08272792
37	0xbd8516f0	-0.064985156
38	0xbc9a89f4	-0.01886461
39	0xbb5a5b12	-0.0033318442
40	0xbda476e4	-0.08030489
41	0x3c15ab06	0.009135013
42	0x3cb57df8	0.022154793
43	0x3dc91961	0.09819294
44	0x3cea32d2	0.028588686
45	0xbc321df2	-0.010871397
46	0xbdba3410	-0.090919614
47	0xbcee3c4a	-0.029081482
48	0xbd7bc12c	-0.06146352
49	0xbd79d563	-0.060994517
50	0x3d851696	0.064984486
51	0xbdad3823	-0.08457973
52	0x3c1e86cc	0.009675693
53	0xbcf23de0	-0.02957052
54	0xbd8ec7fe	-0.06971739
55	0xbda134c6	-0.07871394
56	0xbbb7a788	-0.005604688
57	0xbd26a05a	-0.040680267
58	0xbd4b8007	-0.049682643
59	0xbdb57b88	-0.08861452
60	0xbaa0daa7	-0.0012272195
61	0xbd2a583c	-0.041588053
62	0x3da70f0d	0.081571676
63	0x3d49533f	0.049151655

model.model.model.6.weight f4 [9, 64]
0	0xbdd28e08	-0.102809966
1	0xbe21070e	-0.15725347
2	0x3d04be9c	0.03240834
3	0xbdd6f2f5	-0.10495559
4	0x3e1b01fa	0.15137473
5	0x3d9747dc	0.07386753
6	0x3dce4cbc	0.1007323
7	0xbd82006d	-0.063477375
8	0x3e1e2d8b	0.15447061
9	0x3e25abff	0.16178893
10	0x3ddd862e	0.10816608
11	0xbd84f7f3	-0.06492605
12	0x3defc453	0.11707368
13	0xbdc00b6f	-0.09377181
14	0x3d8e1401	0.06937409
15	0xbd0ca58d	-0.03433757
16	0x3d504c29	0.050853882
17	0xbd652011	-0.055938784
18	0x3df7bf8c	0.120970815
19	0x3d9fd356	0.07803981
20	0x3cfc132b	0.030770859
21	0xbe0dceae	-0.13848373
22	0xbdb7721a	-0.0895731
23	0x3dbee90a	0.093217924
24	0xbdd05dfb	-0.10174175
25	0x3da04561	0.07825733
26	0xbd1ec45b	-0.038761478
27	0x3d89b25a	0.06723471
28	0x3e067520	0.13130617
29	0x3e263b41	0.16233541
30	0xbd37561c	-0.044759855
31	0xbe0e20aa	-0.13879648
32	0x3da3fe2b	0.08007463
33	0x3d626d5c	0.055280074
34	0xbdce229e	-0.100651965
35	0xbc9686b5	-0.01837478
36	0xbca035e0	-0.01955694
37	0xbe08e657	-0.13369118
38	0x3e3133c6	0.17304906
39	0xbdaaa3e4	-0.08332041
40	0xbcb25d07	-0.021772875
41	0xbda43a1a	-0.080188945
42	0x3d147300	0.036242485
43	0xbdc064c1	-0.09394217
44	0x3d90ae5c	0.070645064
45	0xbe0dd0d3	-0.13849191
46	0xbdf04dba	-0.11733575
47	0xbd9eecb2	-0.0775999
48	0x3da714be	0.08158253
49	0x3d2f85f2	0.04285235
50	0xbe088cdf	-0.13334988
51	0xbd08eebc	-0.0334308
52	0x3d680cb2	0.056652732
53	0xbc727fc3	-0.014800969
54	0x3d8870dc	0.06662151
55	0x3e1f8dac	0.15581387
56	0x3d07cddd	0.03315531
57	0xbd58127e	-0.05275201
58	0xbdfb9083	-0.12283423
59	0x3d6e2d8f	0.058148917
60	0x3e26ed65	0.16301496
61	0x3d83857c	0.064219445
62	0x3c2f1bab	0.010687749
63	0xbe15f1e2	-0.14643052
64	0x3d7901bc	0.06079267
65	0x3de075ea	0.1095999
66	0xbc88fb30	-0.016721338
67	0x3cab667f	0.020922897
68	0x3d88b1f5	0.066745676
69	0x3db935ac	0.0904344
70	0xbccac988	-0.0247543
71	0xbdc01504	-0.093790084
72	0x3d8dacb9	0.0691771
73	0xbe0088f5	-0.12552245
74	0x3c961999	0.018322753
75	0xbdb8b256	-0.0901839
76	0xbdbaddd2	-0.0912434
77	0xbd1b0444	-0.037845865
78	0xbcb225e4	-0.021746583
79	0xbda50f74	-0.08059588
80	0xbc12c04a	-0.008956978
81	0xbd34ab88	-0.044108897
82	0x3de6ea44	0.11275151
83	0x3bac4f8f	0.0052585076
84	0xbde4b864	-0.11167982
85	0xbd8605e3	-0.065440916
86	0xbe0066d9	-0.12539233
87	0xbdaf788e	-0.08567916
88	0xbdbcd9ce	-0.092212304
89	0xbc056b4d	-0.008143258
90	0x3d454bf9	0.048168156
91	0xbe10dcfc	-0.14146799
92	0xbdc8d0ad	-0.09805427
93	0xbe231156	-0.15924582
94	0x3deede60	0.116635084
95	0xbd7ab20d	-0.06120496
96	0xbd284bba	-0.041087843
97	0x3c36a9b9	0.0111488635
98	0x3e02077c	0.12698168
99	0xbdb4067c	-0.08790299
100	0x3d34e7bc	0.04416631
101	0xbe03fadd	-0.12888665
102	0xbde60700	-0.11231804
103	0x3daeee87	0.08541589
104	0xbe00536d	-0.12531824
105	0xbde07b90	-0.10961068
106	0x3dd0472f	0.10169827
107	0x3dd43d34	0.10363236
108	0x3dba5499	0.09098167
109	0x3dc60b73	0.096701525
110	0xbd2c9513	-0.042134356
111	0x3bd55e60	0.0065114945
112	0xbca4e020	-0.020126402
113	0x3d27f8e6	0.041008852
114	0x3cf51c5b	0.029920748
115	0x3d1a4764	0.03766574
116	0x3ddbe628	0.10737258
117	0x3dbde935	0.09272996
118	0xbe158c49	-0.14604296
119	0xbca4a562	-0.020098392
120	0x3c960817	0.018314404
121	0x3cd48798	0.025943562
122	0x3d7bc72f	0.061469253
123	0xbd124260	-0.03570783
124	0x3d819704	0.06327632
125	0x3dc53ed0	0.09631121
126	0xbdacb6f6	-0.084333345
127	0xbccbb4c7	-0.024866475
128	0xbdeabf4c	-0.11462268
129	0x3dbb0cc2	0.09133293
130	0xbd1d1794	-0.038352564
131	0x3d2d4e3f	0.04231095
132	0xbd979ddd	-0.07403157
133	0x3c72cda7	0.014819539
134	0xbdf70b9e	-0.12062763
135	0x3d0b238f	0.03396946
136	0xbe14cf60	-0.14532232
137	0xbd34d5b8	-0.04414913
138	0x3de2dbb1	0.11077059
139	0x3a66c896	0.00088036933
140	0x3c1e99b0	0.009680197
141	0x3de7a4fe	0.11310767
142	0xbe058939	-0.13040628
143	0xbe1f1957	-0.1553701
144	0x3ddbc143	0.10730221
145	0xbd853ac4	-0.06505349
146	0x3c39600b	0.011314402
147	0x3df94dde	0.12173055
148	0x3e0c1c43	0.13682656
149	0xbd034187	-0.032044914
150	0x3e17ecc1	0.14836408
151	0xbd4fe2fa	-0.05075357
152	0xbd77a5c5	-0.060460825
153	0x3e0b62f2	0.13611963
154	0xbd86b86a	-0.06578143
155	0x3e20237f	0.1563854
156	0xbca5854b	-0.02020516
157	0x3cf15834	0.029461004
158	0x3de7a4c4	0.113107234
159	0x3e0e5661	0.13900138
160	0xbd85b55e	-0.06528734
161	0xbc7f82d4	-0.015595157
162	0x3de16eed	0.110074855
163	0xbd49671a	-0.04917059
164	0x3c10a81e	0.008829145
165	0xbc872272	-0.016495917
166	0x3c81f8ec	0.015865766
167	0xbdd2b7c7	-0.10288959
168	0xbde3076c	-0.110854
169	0xbe06ac28	-0.1315161
170	0x3dc84fb3	0.097808264
171	0xbc7df088	-0.015499242
172	0xbca38183	-0.019959217
173	0xbe17ee19	-0.14836921
174	0x3e0096d7	0.12557541
175	0xbc64c7f0	-0.013963684
176	0xbda80030	-0.08203161
177	0x3df00876	0.11720364
178	0xbe045c03	-0.12925725
179	0x3c9f00d8	0.019409582
180	0xbd80692f	-0.06270062
181	0x3dfffd02	0.12499429
182	0xbcf28b50	-0.029607445
183	0xbde75aa9	-0.11296589
184	0x3daa9f9e	0.08331226
185	0xbdce7144	-0.100801975
186	0x3daf391b	0.08555814
187	0x3dd9e87a	0.106400445
188	0x3d455dfd	0.048185337
189	0xbcca5298	-0.024697587
190	0x3e06273b	0.13100903
191	0xbd952df9	-0.07284159
192	0x3d2087f1	0.039192144
193	0xbb786ef4	-0.003790793
194	0x3d9e5baa	0.07732327
195	0xbe1ea78c	-0.15493602
196	0x3d36aa3f	0.044595953
197	0xbc6b01ce	-0.014343692
198	0xbdd52f7d	-0.10409448
199	0x3d856a81	0.06514455
200	0x3d8abbff	0.06774139
201	0xbd1ec033	-0.038757514
202	0x3d99bf8b	0.07507237
203	0xbe0d1c2e	-0.13780281
204	0x3cae8e71	0.021308156
205	0xbda4a85a	-0.08039923
206	0xbda397d4	-0.07987943
207	0x3d97d192	0.07413019
208	0xbd0707cb	-0.032966416
209	0x3da1ce63	0.07900693
210	0xbd88f18e	-0.06686698
211	0x3e1745fb	0.14772789
212	0xbdb49907	-0.0881825
213	0x3df7e264	0.121037275
214	0x3cbc9bfc	0.023023598
215	0xbdbdb662	-0.092633024
216	0xbe19fa37	-0.15036856
217	0xbb0627b0	-0.0020470433
218	0xbe25f7a4	-0.16207749
219	0xbdb0e94e	-0.08638249
220	0x3dd80c87	0.105492644
221	0x3d17fd30	0.037106693
222	0x3d6d7545	0.057973165
223	0x3cb2a5dd	0.021807605
224	0x3e0f459f	0.13991402
225	0x3deeede0	0.11666465
226	0x3e1e0e95	0.1543525
227	0x3e39ae2e	0.1813285
228	0x3d2fa13c	0.042878374
229	0xbd95559f	-0.072917216
230	0x3e0d69dc	0.13809913
231	0xbdd13647	-0.10215431
232	0x3cd5e596	0.026110452
233	0x3d54dd1b	0.051968675
234	0x3c7e57e1	0.015523882
235	0x3d6a618d	0.057221938
236	0x3d985004	0.07437137
237	0xbc5d0411	-0.013489739
238	0x3c6d3d70	0.01447998
239	0xbd910486	-0.07080941
240	0x3da3e644	0.08002904
241	0x3daa9617	0.083294086
242	0x3bce5512	0.0062967623
243	0xbdf2ec0e	-0.1186143
244	0x3c70c19c	0.014694598
245	0xbd4cfbe0	-0.050044894
246	0xbe0ea4c6	-0.13930044
247	0xbdd46ca3	-0.10372283
248	0xbcce752f	-0.025202362
249	0xbd0fcb03	-0.035105716
250	0x3b6d2631	0.0036186094
251	0x3d4c7b80	0.049922466
252	0x3e242dda	0.16033116
253	0x3cbad288	0.022805467
254	0x3de22157	0.11041515
255	0x3df19ad7	0.117971115

model.model.model.6.bias f4 [9]
0	0x3d24d3af	0.04024094
1	0x3cd34179	0.025788056
2	0xbc46ec43	-0.01214129
3	0x3ccdb61a	0.025111247
4	0x3cbe443a	0.023225892
5	0x3ddacffe	0.106842026
6	0x3df191d9	0.11795396
7	0xbc98adae	-0.018637504
8	0xbda50de5	-0.08059291

model_old.model.model.0.weight f4 [256, 18]
0	0x3e365a3e	0.17807862
1	0xbdbc2347	-0.09186416
2	0xbdc34beb	-0.095359646
3	0x3d1b648d	0.03793769
4	0x3e11135d	0.14167543
5	0x3d38cf27	0.04511943
6	0xbde75540	-0.11295557
7	0x3d8bb309	0.068212576
8	0xbe2ee3a0	-0.1707902
9	0xbd4316ab	-0.04762904
10	0x3e2e607d	0.17028995
11	0xbdb73615	-0.08945862
12	0x3d26d8ef	0.040734228
13	0xbb7f8c23	-0.003899344
14	0xbd90fc40	-0.07079363
15	0x3e1ad6e1	0.15121032
16	0x3e14de0e	0.14537832
17	0x3d335355	0.043780643
18	0xbe07be29	-0.13256134
19	0xbd788e1d	-0.060682405
20	0xbe949df0	-0.29026747
21	0xbbb9a592	-0.0056654895
22	0xbcbba6cd	-0.022906685
23	0xbc025034	-0.007953692
24	0xbcc26f68	-0.023734763
25	0x3e1c3ed6	0.15258345
26	0x3deb67c9	0.11494405
27	0xbd100ae9	-0.035166655
28	0x3d69104e	0.056900315
29	0x3dd99389	0.10623843
30	0x3dd21eb8	0.102597654
31	0x3dad4d3d	0.08461998
32	0x3cba083b	0.022709003
33	0xbdbbecb3	-0.09176006
34	0x3da1826e	0.078862056
35	0x3d4c40b4	0.049866393
36	0xbdc086f1	-0.09400738
37	0x3e52ba9d	0.20579
38	0x3d658c97	0.05604228
39	0xbd6a956d	-0.05727141
40	0x3da1334f	0.078711145
41	0xbd6aa0bf	-0.057282206
42	0x3e20236f	0.15638517
43	0x3e24c15b	0.16089384
44	0xbe856244	-0.26051533
45	0x3d411c73	0.047146272
46	0xbadbcace	-0.0016768815
47	0x3d8ba7c2	0.06819107
48	0x3d569ec0	0.05239749
49	0xbce13216	-0.027489703
50	0x3e8e2c4b	0.27768168
51	0x3e0d2dba	0.13786975
52	0x3e80bcae	0.2514395
53	0xbe17199e	-0.14755866
54	0x3bdacbac	0.0066771116
55	0x3e82a84c	0.25519025
56	0x3e786782	0.24258235
57	0xbe4dc3c1	-0.20094205
58	0x3e31caa8	0.17362463
59	0x3e4f8c7e	0.20268437
60	0xbe17c3d4	-0.14820796
61	0x3e5600c9	0.20898737
62	0x3c79b43c	0.015240725
63	0x3e59954d	0.2124836
64	0xbd6a1696	-0.057150446
65	0xbd96469a	-0.07337685
66	0xbccfa3ac	-0.0253466
67	0x3e449ce1	0.1920047
68	0xbe2f119e	-0.17096564
69	0xbe1c9e2a	-0.1529471
70	0x3e2be11c	0.16785091
71	0xbc9f11fc	-0.019417755
72	0x3e1c6cfd	0.1527595
73	0x3e5d4452	0.21608093
74	0xbe877063	-0.26452932
75	0xbc618544	-0.013764683
76	0xbd57a599	-0.05264816
77	0x3e3fffc6	0.18749914
78	0x3e9e5b83	0.30929193
79	0xbdd46f92	-0.10372843
80	0x3e56861f	0.209496
81	0x3e2bd706	0.16781244
82	0xbc29359b	-0.010327722
83	0xbd92ac35	-0.07161752
84	0xbe33ed15	-0.17570908
85	0x3bc982a0	0.006149605
86	0xbe13d803	-0.1443787
87	0x3e1f2b8b	0.15543954
88	0xbb68b678	-0.003550915
89	0x3e3a06b4	0.1816662
90	0xbe2fc8c9	-0.17166437
91	0x3e5d5a7c	0.21616548
92	0x3e37df33	0.17956237
93	0xbe2ed0f1	-0.17071892
94	0x3c139f94	0.009010214
95	0xbc78d0dd	-0.015186516
96	0x3cbe8ab8	0.023259506
97	0x3d6bbcc4	0.057553068
98	0xbe4c93a7	-0.199782
99	0x3d12a055	0.035797436
100	0x3e5160a9	0.20447029
101	0xbe404453	-0.18776064
102	0x3e223d1c	0.15843624
103	0xbca5b019	-0.020225571
104	0xbe0a8faf	-0.13531373
105	0x3da957e7	0.08268719
106	0x3e6dac44	0.23210245
107	0xbe398460	-0.18116903
108	0x3e6f1479	0.23347653
109	0xbdb48e51	-0.08816207
110	0xbe62e758	-0.22158563
111	0xbd1fd998	-0.039025873
112	0x3e8d3670	0.27580595
113	0xbe39b7cd	-0.1813652
114	0xbdeb5f36	-0.114927694
115	0x3d64411e	0.055726163
116	0x3e36df7e	0.17858693
117	0xbe84f281	-0.25966266
118	0xbde751e4	-0.11294916
119	0x3e4e09ab	0.20120876
120	0xbc5c097f	-0.013429998
121	0x3e60fdb7	0.21971785
122	0xbd4ac15e	-0.049500816
123	0xbe18543e	-0.14875886
124	0x3e16e735	0.14736636
125	0x3d9adcf2	0.07561673
126	0x3db3375b	0.087507926
127	0x3d4de9ca	0.050271787
128	0x3e44b61a	0.19210091
129	0xbdf0e2f3	-0.11762037
130	0xbdf998ae	-0.121873245
131	0x3e3cf009	0.18450941
132	0x3e7e91e8	0.24860346
133	0xbddf11f8	-0.10892099
134	0xbe82e9c2	-0.25568968
135	0x3e323149	0.17401613
136	0x3dd8a951	0.105791695
137	0xbd8e1811	-0.06938184
138	0xbd24e5cb	-0.04025821
139	0x3e23035b	0.15919249
140	0xbd4011b5	-0.046891887
141	0xbe23100e	-0.15924093
142	0xbdbb7a4a	-0.09154184
143	0xbdddee13	-0.10836425
144	0x3dc930a7	0.09823733
145	0x3e40eb9a	0.18839875
146	0x3e8fe336	0.28103036
147	0xbdb85a33	-0.09001579
148	0xbe481a45	-0.19541271
149	0x3e524376	0.20533547
150	0xbe17fcc4	-0.14842516
151	0xbd53650d	-0.05161004
152	0xbe1c77d9	-0.15280093
153	0x3d89269b	0.066968165
154	0xbe299572	-0.16560915
155	0x3de0c9ef	0.10976016
156	0x3e54421a	0.2072834
157	0x3cbc8d11	0.023016484
158	0xbd9c3fc2	-0.07629348
159	0x3cb38a14	0.021916427
160	0x3e211897	0.15732037
161	0xbe2c201d	-0.16809125
162	0x3e5ea17d	0.2174129
163	0xbdbefec0	-0.093259335
164	0xbd89a07f	-0.06720065
165	0xbdda7ad5	-0.106679596
166	0x3e37dc02	0.1795502
167	0x3d4db793	0.0502239
168	0xbe20b108	-0.15692532
169	0xbd3f3f6b	-0.04669134
170	0x3dd2416a	0.10266383
171	0xbe56ba8c	-0.209696
172	0xbbb1ffd3	-0.005432108
173	0x3e4c2551	0.1993611
174	0x3da80280	0.08203602
175	0x3dcb9995	0.09941403
176	0x3dbe4963	0.09291341
177	0x3e399bc2	0.18125823
178	0x3cd65486	0.02616335
179	0x3cadc088	0.02120997
180	0xbc2231d8	-0.009899579
181	0xbd2debe1	-0.04246128
182	0x3dd4ce45	0.10390905
183	0xbdee97dc	-0.116500586
184	0xbd646251	-0.055757824
185	0x3e3ae6bf	0.18252085
186	0x3e8ae638	0.27128768
187	0x3c500e75	0.012698759
188	0x3d977ebf	0.07397222
189	0x3a08aba7	0.00052135665
190	0x3d85dfdf	0.06536841
191	0x3df16781	0.1178732
192	0x3e810da8	0.2520573
193	0x3dff2cc4	0.1245971
194	0xbc2d87bb	-0.010591443
195	0x3c4cb475	0.012494196
196	0xbacf2562	-0.0015803988
197	0xbb01836f	-0.0019762178
198	0xbd009464	-0.031391516
199	0x3e79ce72	0.24395159
200	0xbe46142c	-0.19343632
201	0xbcfe6b96	-0.03105716
202	0xbd57b7b3	-0.052665424
203	0xbdf85ea5	-0.12127427
204	0xbe214014	-0.157471
205	0xbb8500f0	-0.0040589496
206	0x3e5fb84f	0.21847652
207	0xbd7dec94	-0.061993197
208	0x3e7110dd	0.23541589
209	0x3e80514b	0.25062022
210	0x3bfb1fd8	0.007663708
211	0xbc2a7fed	-0.010406476
212	0xbd43cad5	-0.047800858
213	0xbe6389db	-0.22220556
214	0x3d2ac5ba	0.041692473
215	0xbe35b62b	-0.17745273
216	0x3dec6bd1	0.11544002
217	0xbd0de767	-0.03464451
218	0xbe75ee3a	-0.24016657
219	0x3e2dea87	0.16983996
220	0x3e80bf3a	0.25145894
221	0x3e7c70ab	0.24652354
222	0xbe023019	-0.1271366
223	0xbe17842e	-0.14796516
224	0xbdf6480f	-0.12025463
225	0x3d4f1992	0.050561495
226	0x3e6b6806	0.229889
227	0xbe15e08d	-0.1463644
228	0xbe1cc884	-0.15310866
229	0x3d596d79	0.053082917
230	0x3e22c857	0.15896736
231	0xbd15386f	-0.036430772
232	0xbc33d7ef	-0.010976776
233	0xbe528c18	-0.20561254
234	0xbe639335	-0.22224124
235	0xbe522174	-0.20520574
236	0x3e15f28f	0.1464331
237	0x3e41ff27	0.18944989
238	0x3e5f832d	0.21827383
239	0xbe9395eb	-0.28825316
240	0xbd38c9b9	-0.045114253
241	0xbe4e0aba	-0.2012128
242	0xbd84eaae	-0.06490074
243	0x3e846bea	0.25863582
244	0x3c55e9d7	0.01305624
245	0x3da63afb	0.081167184
246	0xbd478321	-0.04870904
247	0x3e709c64	0.23497158
248	0xbdec3f89	-0.11535556
249	0xbc7a8421	-0.015290291
250	0x3e05cd32	0.13066557
251	0xbdbf6432	-0.093452826
252	0x3dbcecf1	0.092248805
253	0xbdc7a314	-0.097479016
254	0xbd0da243	-0.034578573
255	0xbd27cc13	-0.040966105
